checkpoint_critic_base.pth (torch, 82731 bytes, 5 tensors)

fcs1.weight f4 [128, 24]
-0.048361868 -0.04058299 0.015414464 0.04782624 -0.08268128 -0.035725683 0.021080162 -0.0894615
-0.0644235 0.09055377 -0.02093312 0.07950596 -0.053538796 0.0033075532 0.023868008 -0.0639857
0.0939224 0.1687349 -0.049815588 0.014071905 0.1963134 -0.034284472 0.041275643 -0.08448361
0.04228427 0.07708112 -0.020206736 -0.04990028 -0.051003058 -0.08089165 0.005362526 -0.05916912
-0.01587425 0.072074786 0.020641295 0.050556168 -0.026582979 -0.08789345 -0.021950437 0.042667575
-0.06334762 0.017026588 0.023545673 0.038724203 0.05803193 -0.01869304 -0.041930344 -0.047433604
0.08205516 -0.03243648 0.0772636 -0.07108126 -0.068414554 -0.08324962 -0.068301745 0.021947874
0.03073702 -0.008512956 0.017557204 -0.032057516 -0.06242057 -0.08294914 0.032735854 -0.14588445
0.03615255 -0.014509372 0.009920379 0.06878153 0.10437391 -0.19690686 -0.045576107 -0.049068823
0.0036717476 -0.075614214 0.06443951 0.023819946 0.0023430202 -0.18707743 -0.036546234 0.04582516
-5.2801566e-05 0.05435633 0.07796038 -0.027580874 0.040459022 -0.075426035 -0.053401057 0.034486823
-0.07953001 0.063705094 0.03569337 0.08702689 -0.056086976 0.14265124 -0.01597314 -0.08244618
0.094965294 -0.027581982 -0.05412635 -0.049882393 -0.11101965 -0.06715179 -0.017441094 0.059954558
0.035613082 0.024309171 0.01973775 0.06959644 -0.15903248 -0.024370221 -0.04148538 0.0293445
0.08200892 0.12955007 0.053520884 0.089712836 -0.02799809 0.048669856 -0.0051929737 0.112633504
0.023287162 -0.051157247 -0.023710456 0.0008690463 -0.044214927 -0.09309563 0.02107855 0.01031369
0.02520966 -0.0692079 0.013239456 -0.02948067 -0.046538286 -0.027356556 0.042583026 0.011913182
0.049433425 -0.066316865 0.0776262 0.06315674 0.019551111 -0.040601157 -0.06485975 0.035414416
-0.019997817 -0.0052184733 0.029289074 0.014785353 0.061907455 0.0071917875 -0.042862844 -0.015100451
0.053253144 -0.029498095 0.07077466 -0.086385064 -0.1231296 -0.0048375526 -0.059343208 0.04158242
0.01809947 -0.06607044 -0.012392184 0.055191223 -0.18240702 -0.023575125 0.03483939 -0.022484573
0.024893938 -0.105569 -0.04785872 -0.055961892 0.1230043 0.05026576 0.040908303 -0.047178805
-0.017911414 0.07168961 0.0118803475 -0.044939373 -0.050917547 0.060926072 0.018593645 0.037791606
0.08007587 0.06150887 -0.02493352 0.06380439 -0.023604445 0.008282186 -0.0015775813 -0.06725821
0.007916414 -0.0115781715 -0.03487555 0.007966857 -0.060098894 -0.10228396 0.032447144 0.008742906
0.009439658 -0.081560805 0.037238937 -0.033095606 -0.05758522 0.01669338 -0.060291674 -0.064956866
-0.059031077 -0.04834578 0.013365502 -0.08177871 -0.021129763 -0.009825922 -0.04236877 -0.06200438
0.0039067697 -0.12948081 -0.03254433 0.056284156 -0.060347527 0.010551912 0.051929403 -0.03151714
0.07179264 -0.1347547 0.011987176 0.030167706 0.058121033 0.04427485 0.013452597 -0.03414338
0.07833379 0.030720418 -0.053007685 -0.114315234 0.09221445 0.17800057 0.019615361 0.040519327
0.07168913 0.15003024 -0.01911957 0.03226305 -0.012778672 0.002104088 -0.060629103 -0.046208046
0.10350404 0.052895878 0.0925547 -0.17637645 0.073107764 -0.13628891 -0.06696999 -0.049294345
00000000: 1817 46bd 593a 26bd f38c 7c3c 73e5 433d
00000010: ce54 a9bd 1855 12bd 4eb0 ac3c 9737 b7bd
00000020: 78f0 83bd 4174 b93d ef7b abbc 05d4 a23d
00000030: 7f4b 5bbd 89c3 583b d786 c33c ef0a 83bd
00000040: 635a c03d d7c8 2c3e 6e0b 4cbd d98d 663c
00000050: 6106 493e e06d 0cbd a610 293d be05 adbd
00000060: 4532 2d3d b5dc 9d3d 9988 a5bc 3c64 4cbd
00000070: 95e8 50bd 85aa a5bd 21b8 af3b 525b 72bd
00000080: b70a 82bc f29b 933d ef17 a93c fc13 4f3d
00000090: 8cc4 d9bc 7b01 b4bd 67d1 b3bc 32c4 2e3d
000000a0: 66bc 81bd 587b 8b3c dbe2 c03c 459d 1e3d
000000b0: e4b2 6d3d 2522 99bc 27bf 2bbd bd49 42bd
000000c0: 890c a83d 1ddc 04bd 613c 9e3d 0d93 91bd
000000d0: ee1c 8cbd c77e aabd c9e1 8bbd 07cc b33c
000000e0: 34cc fb3c ed79 0bbc 20d4 8f3c be4e 03bd
000000f0: b6ac 7fbd 3de1 a9bd 0816 063d bc62 15be
00000100: b214 143d b8b8 6dbc 1689 223c 55dd 8c3d
00000110: fdc1 d53d f4a1 49be 03ae 3abd 64fc 48bd
00000120: b4a1 703b a0db 9abd ddf8 833d 0c22 c33c
00000130: 5b8d 193b 3a91 3fbe 81b1 15bd 2ab3 3b3d
00000140: 4077 5db8 bea4 5e3d b1a9 9f3d 49f1 e1bc
00000150: 5cb8 253d f778 9abd 11bb 5abd 0e42 0d3d
00000160: a1e0 a2bd d177 823d 3633 123d 273b b23d
00000170: 75bb 65bd 2b13 123e 1ada 82bc 8bd9 a8bd
00000180: 2a7d c23d 9cf3 e1bc 97b3 5dbd 7b51 4cbd
00000190: 455e e3bd e186 89bd a0e0 8ebc e992 753d
000001a0: 06df 113d 0724 c73c 10b1 a13c 9488 8e3d
000001b0: 69d9 22be 0fa4 c7bc 93ec 29bd e063 f03c
000001c0: 4bf4 a73d c6a8 043e b738 5b3d 5dbb b73d
000001d0: 405c e5bc 0b5a 473d d229 aabb 65ac e63d
000001e0: b8c4 be3c 438a 51bd 6e3c c2bc b6d0 633a
000001f0: b61a 35bd eca8 bebd ecac ac3c c0fa 283c
00000200: 7d84 ce3c dfbc 8dbd 4eea 583c 7281 f1bc
00000210: ee9e 3ebd db1a e0bc 8a6b 2e3d 822f 433c
00000220: b47a 4a3d 23d1 87bd 7cfa 9e3d 5258 813d
00000230: a729 a03c 664d 26bd 30d5 84bd b50e 113d
00000240: 76d2 a3bc baff aabb a4ef ef3c 443e 723c
00000250: ac92 7d3d 16a9 eb3b f390 2fbd e267 77bc
00000260: f81f 5a3d fda5 f1bc 4ef2 903d a7ea b0bd
00000270: 5f2b fcbd 5584 9ebb dd11 73bd 5452 2a3d
00000280: 5745 943c f04f 87bd 9608 4bbc 3110 623d
00000290: e8c8 3abe 9f20 c1bc c0b3 0e3d 9131 b8bc
000002a0: 5fee cb3c 8f34 d8bd 8107 44bd 4c38 65bd
000002b0: aee9 fb3d 78e3 4d3d 778f 273d 903e 41bd
000002c0: f5ba 92bc 01d2 923d caa5 423c 5912 38bd
000002d0: eb8e 50bd 9e8d 793d b351 983c 5fcb 1a3d
000002e0: d1fe a33d baf0 7b3d 6241 ccbc e0ab 823d
000002f0: 1c5e c1bc 02b2 073c d8c6 ceba acbe 89bd
00000300: d9b3 013c 5fb2 3dbc aad9 0ebd 6c87 023c
00000310: 422a 76bd 417a d1bd 4ce7 043d 683e 0f3c
00000320: cca8 1a3c 5a09 a7bd db87 183d 428f 07bd
00000330: 7bde 6bbd 8ec0 883c 67f4 76bd 1b08 85bd
00000340: 92ca 71bd 3906 46bd fafa 5a3c 997b a7bd
00000350: 5318 adbc e7fc 20bc e08a 2dbd 4ef8 7dbd
00000360: 5c04 803b 9e96 04be 344d 05bd 378a 663d
00000370: f82e 77bd ede1 2c3c edb3 543d 1e18 01bd
00000380: 0508 933d 23fd 09be dc65 443c 4422 f73c
00000390: 5210 6e3d 8c59 353d 4868 5c3c eed9 0bbd
000003a0: 776d a03d 63a9 fb3c 961e 59bd 1b1e eabd
000003b0: eeda bc3d c845 363e 65b0 a03c 98f7 253d
000003c0: c0d1 923d 87a1 193e a5a0 9cbc 4326 043d
000003d0: a35d 51bc bde4 093b 3956 78bd a644 3dbd
000003e0: edf9 d33d 59a9 583d 528d bd3d 079c 34be
000003f0: 86b9 953d 528f 0bbe 9027 89bd dee8 49bd

fcs1.bias f4 [128]
-0.12013913 0.17627843 -0.18618228 -0.16097763 -0.12206297 0.0932752 0.021934077 -0.15349323
0.012546897 -0.14454335 -0.094583556 0.031244515 0.18695061 0.17825674 0.22427851 0.14566702
0.12511519 0.014443434 0.07144457 -0.056947082 -0.13159359 -0.13704391 0.03907806 0.12775491
-0.13278499 -0.043738052 0.15446703 0.06409211 -0.16351292 -0.1929363 -0.101546794 -0.14789788
-0.047082093 -0.10752373 -0.040097907 -0.10457143 0.10616469 -0.14560169 0.05487122 -0.123649344
0.05791793 -0.049775906 0.11748297 -0.058790162 0.06772791 0.026478505 0.20503274 -0.15579912
-0.20358385 0.029390378 0.11555234 0.005622122 0.044046625 -0.10868102 0.14753535 -0.076580554
0.043244783 0.10132936 0.16286471 -0.06320757 -0.057902314 0.044560667 0.18478349 -0.17289966
-0.24271075 -0.06398283 -0.16653313 -0.02526549 -0.18987808 0.072121285 -0.07034993 0.21402304
0.19543967 -0.22908747 -0.0060233735 0.2545265 0.21685304 -0.11892254 0.11323778 0.06585066
0.1962507 -0.03590741 0.009749314 -0.083969615 -0.028899135 0.07129228 -0.07634779 -0.26809275
0.13359135 -0.16872697 0.042729247 -0.10941808 -0.058238078 -0.2318038 -0.075837865 0.14025259
0.14869153 0.11644624 -0.08842645 -0.0620459 -0.22796911 -0.12754747 -0.27098083 -0.1349857
-0.20871256 0.19673437 -0.10025966 -0.100267276 -0.077939615 0.25187302 -0.08743345 -0.014606081
0.122879624 0.045765474 0.22396545 -0.13292156 0.17857704 -0.2931059 -0.06415481 -0.07011571
0.06559764 -0.057707228 0.14793187 -0.11762472 -0.1587172 -0.10100361 -0.01556903 0.06160265
00000000: 810b f6bd 5582 343e 91a6 3ebe 52d7 24be
00000010: 27fc f9bd 1107 bf3d 18af b33c 542d 1dbe
00000020: 8091 4d3c 2c03 14be 06b5 c1bd 7ff4 ff3c
00000030: fb6f 3f3e ef88 363e 44a9 653e bc29 153e
00000040: 321e 003e 27a4 6c3c 8851 923d 5841 69bd
00000050: 78c0 06be 3d55 0cbe 5110 203d 2fd2 023e
00000060: caf8 07be ac26 33bd 9b2c 1e3e b942 833d
00000070: ee6f 27be 1891 45be c4f7 cfbd 8b72 17be
00000080: 27d9 40bd 6735 dcbd b43d 24bd 8c29 d6bd
00000090: df6c d93d 9c18 15be a5c0 603d de3b fdbd
000000a0: 5a3b 6d3d d2e1 4bbd e99a f03d f4cd 70bd
000000b0: eeb4 8a3d 73e9 d83c 1af4 513e ce89 1fbe
000000c0: 4978 50be 17c4 f03c b5a6 ec3d c739 b83b
000000d0: 3c6a 343d 2894 debd 8213 173e 44d6 9cbd
000000e0: 7121 313d c485 cf3d 02c6 263e f872 81bd
000000f0: fa2a 6dbd 3f85 363d e237 3d3e 9c0c 31be
00000100: 2b89 78be 6e09 83bd a987 2abe 93f9 cebc
00000110: 666f 42be 53b4 933d a013 90bd db28 5b3e
00000120: 5621 483e e895 6abe b85f c5bb 4c51 823e
00000130: b90e 5e3e a98d f3bd 36e9 e73d b6dc 863d
00000140: f2f5 483e a613 13bd 96bb 1f3c 43f8 abbd
00000150: e1bd ecbc b001 923d 3b5c 9cbd 7443 89be
00000160: 2ccc 083e c3c6 2cbe dd04 2f3d 9616 e0bd
00000170: 0d8b 6ebd fa5d 6dbe e250 9bbd 609e 0f3e
00000180: 9842 183e 5e7b ee3d ed18 b5bd d723 7ebd
00000190: bc70 69be ce9b 02be 00be 8abe b139 0abe
000001a0: bfb8 55be bc74 493e f054 cdbd ee58 cdbd
000001b0: ce9e 9fbd 80f5 803e 4f10 b3bd 584e 6fbc
000001c0: 50a8 fb3d 9474 3b3d 3357 653e 971c 08be
000001d0: e6dc 363e fa11 96be 9963 83bd d398 8fbd
000001e0: 0e58 863d 6a5e 6cbd 747b 173e 3be5 f0bd
000001f0: c386 22be fbda cebd 3f15 7fbc 0f53 7c3d

fc2.weight f4 [128, 130]
-0.16955811 0.04072759 -0.07258862 -0.0003483058 0.009958799 -0.021501807 0.012262238 -0.048499588
-0.014806468 -0.07516623 -0.08851412 0.040480286 -0.111674145 -0.059867814 -0.054261014 -0.06089642
0.054303564 -0.07599658 0.10585248 -0.09646744 0.028305309 -0.1784275 -0.008056591 -0.018133482
-0.02268561 0.012202311 0.020243907 -0.10054602 -0.16654813 0.046917982 -0.10937914 0.05251795
0.015382432 -0.123323746 -0.040010273 -0.123069346 0.017673781 -0.090436794 -0.10157064 -0.022898428
-0.025699753 -0.0015981803 -0.071298115 0.02159188 0.014174531 -0.1556239 -0.056705512 0.01711841
-0.06578311 -0.013971404 -0.034889746 0.03500363 0.0022738224 -0.022516983 0.022501504 0.009844054
0.023551987 -0.011276221 0.05715241 -0.06253276 0.09194525 -0.0016890528 0.02356237 0.051527962
0.05732167 0.03188638 0.0040403632 0.052686244 -0.10164085 -0.09510091 0.0014728033 -0.030486917
-0.06550102 -0.03835445 -0.047046993 0.09978779 -0.13195144 -0.06235327 -0.005990433 0.06430994
0.2403599 0.09685968 0.06056229 0.00036401275 0.01467774 0.005488568 -0.027043115 0.11571891
0.005689828 0.11249008 0.09798035 0.0053044036 0.078802034 -0.10559666 -0.020921206 0.041699957
-0.12825279 -0.06080017 0.0012683573 0.010165879 0.003338775 0.12002579 -0.057487868 0.057466127
-0.062014036 0.053154126 0.056291867 -0.02238539 -0.088630565 -0.08188887 0.08526063 -0.043521103
0.056229968 0.031019352 0.1776798 -0.07875827 -0.30328372 0.088183984 -0.021758812 0.049475305
-0.05657404 0.048863452 -0.010419785 0.09872672 -0.05475813 -0.015091727 -0.12717535 -0.065413885
-0.07187716 -0.019763023 0.03344837 0.027042592 -0.025149193 0.025655985 0.062311605 0.02125214
-0.012740488 -0.06156228 0.03550384 0.0046405797 0.060864545 0.13340262 0.03285026 0.061202552
-0.08123028 0.078045785 -0.05659281 -0.10502859 0.027060162 -0.14410752 -0.11354692 0.071670465
-0.029332653 0.020931184 0.04272612 0.012797655 0.056928597 0.002654253 0.064560965 -0.009682061
0.004422222 0.07139601 -0.058666583 -0.16117328 -0.0011801181 0.025380587 -0.03550203 0.108922586
-0.04427081 -0.09563099 -0.027707908 0.0036314344 0.020370608 0.011560593 0.053122446 0.0014855203
-0.0983093 -0.090287894 -0.0063842083 -0.08684364 0.004738451 -0.06694636 -0.063639775 0.040935297
-0.012767706 -0.012428524 0.120747395 -0.076278046 0.04279012 0.0004779214 0.028791474 -0.022966806
-0.09445709 -0.035237707 0.062463228 0.08940622 0.031015793 0.06068888 0.001200996 0.16855529
-0.059528418 -0.086733915 -0.146313 0.14445263 -0.033932418 0.023901725 -0.06781045 0.07235474
0.05040208 -0.05314014 -0.17531966 -0.04570212 0.059576225 -0.013793362 0.012210363 0.016701205
-0.07385504 -0.03572433 0.021707337 0.14902611 0.08315329 -0.047543272 0.047285307 -0.058111414
0.045017082 -0.08933891 -0.010417489 -0.09521853 -0.08615253 -0.051850855 0.05831077 -0.065916836
0.012892506 -0.011792794 0.042084843 -0.03532523 0.042947926 0.096642956 0.050515246 0.07655144
0.05580444 0.04443201 -0.0063856356 -0.03834158 0.11144697 -0.063481495 -0.32781962 -0.05196989
0.009375837 -0.081107 -0.06972287 -0.09151751 -0.079805866 -0.067365654 0.07563078 -0.023295857
00000000: a4a0 2dbe f9d1 263d 58a9 94bd d09c b6b9
00000010: 3b2a 233c 8f24 b0bc 8ee7 483c 81a7 46bd
00000020: d496 72bc c1f0 99bd e446 b5bd a8ce 253d
00000030: 6ab5 e4bd f437 75bd cc40 5ebd 866e 79bd
00000040: 6a6d 5e3d 18a4 9bbd 2fc9 d83d b990 c5bd
00000050: 89e0 e73c b3b5 36be cbff 03bc ab8c 94bc
00000060: 2cd7 b9bc 34ec 473c 8dd6 a53c 12eb cdbd
00000070: 988b 2abe 122d 403d 2c02 e0bd 101d 573d
00000080: 9906 7c3c 2991 fcbd d0e1 23bd c80b fcbd
00000090: 9bc8 903c ed36 b9bd 4504 d0bd 7c95 bbbc
000000a0: 4a88 d2bc 087a d1ba bf04 92bd 74e1 b03c
000000b0: 4b3c 683c df5b 1fbe 0a44 68bd e83b 8c3c
000000c0: 4cb9 86bd 51e8 64bc 8de8 0ebd f75f 0f3d
000000d0: 6904 153b 8975 b8bc 1355 b83c f448 213c
000000e0: 19f0 c03c e6bf 38bc a518 6a3d 2d11 80bd
000000f0: cb4d bc3d 3563 ddba df05 c13c fc0e 533d
00000100: 21ca 6a3d 4b9b 023d 0665 843b 88cd 573d
00000110: 1429 d0bd 44c4 c2bd 140b c13a b3bf f9bc
00000120: 6625 86bd 8e19 1dbd 59b4 40bd 8a5d cc3d
00000130: 471e 07be 2466 7fbd 654b c4bb eeb4 833d
00000140: e820 763e 5e5e c63d 2a10 783d f7d8 be39
00000150: e77a 703c 72d9 b33b 8689 ddbc 09fe ec3d
00000160: bd71 ba3b 3361 e63d eca9 c83d 90d0 ad3b
00000170: f662 a13d 1043 d8bd f362 abbc 93cd 2a3d
00000180: b354 03be 9909 79bd 023f a63a c98e 263c
00000190: 59cf 5a3b 15d0 f53d 6678 6bbd 9a61 6b3d
000001a0: 6e02 7ebd 24b8 593d 4d92 663d 9161 b7bc
000001b0: f183 b5bd 5ab5 a7bd 209d ae3d 2f43 32bd
000001c0: 6551 663d 4c1c fe3c b2f1 353e 044c a1bd
000001d0: 0148 9bbe ce99 b43d 893f b2bc 9ea6 4a3d
000001e0: 2eba 67bd 0b25 483d bfb7 2abc 3c31 ca3d
000001f0: 104a 60bd 4a43 77bc 413a 02be b7f7 85bd
00000200: 5534 93bd 10e6 a1bc 2801 093d 6d88 dd3c
00000210: ae05 cebc 802c d23c 743a 7f3d f818 ae3c
00000220: 7bbd 50bc bb28 7cbd 796c 113d 0110 983b
00000230: 1a4d 793d b29a 083e ff8d 063d 87af 7a3d
00000240: 105c a6bd 78d6 9f3d ddcd 67bd 3b19 d7bd
00000250: 46ad dd3c ec90 13be 4a8b e8bd f7c7 923d
00000260: 084b f0bc e077 ab3c 9601 2f3d 41ad 513c
00000270: f62d 693d faf2 2d3b 8a38 843d 82a1 1ebc
00000280: 49e8 903b 1238 923d 5f4c 70bd 9c0a 25be
00000290: 31ae 9aba f3ea cf3c 946a 11bd ce12 df3d
000002a0: 4f55 35bd 2eda c3bd b2fb e2bc 5cfd 6d3b
000002b0: 43e0 a63c a468 3d3c ec96 593d cab5 c23a
000002c0: 6356 c9bd dce8 b8bd 9f32 d1bb 14db b1bd
000002d0: 0245 9b3b 2c1b 89bd 9255 82bd c5ab 273d
000002e0: a42f 51bc 02a1 4bbc 694a f73d aa37 9cbd
000002f0: b144 2f3d 8691 fa39 19dc eb3c e224 bcbc
00000300: b872 c1bd 6a55 10bd 71d9 7f3d 9c1a b73d
00000310: d514 fe3c e794 783d bd6a 9d3a c299 2c3e
00000320: 12d4 73bd 8da1 b1bd 13d3 15be 64eb 133e
00000330: b8fc 0abd 8dcd c33c 35e0 8abd b92e 943d
00000340: 6972 4e3d 7aa9 59bd ff86 33be 2532 3bbd
00000350: 3306 743d 8efd 61bc f90d 483c f7d0 883c
00000360: 5041 97bd ad53 12bd 96d3 b13c 4d9a 183e
00000370: 464c aa3d bcbc 42bd 3dae 413d 3c06 6ebd
00000380: d563 383d 52f7 b6bd 1eae 2abc ef01 c3bd
00000390: bd70 b0bd 9061 54bd 46d7 6e3d 68ff 86bd
000003a0: 173b 533c 9036 41bc 2861 2c3d 30b1 10bd
000003b0: 2aea 2f3d beec c53d 13e9 4e3d 00c7 9c3d
000003c0: 3293 643d 57fe 353d 983e d1bb 100c 1dbd
000003d0: 4f3e e43d 9602 82bd f9d7 a7be 61de 54bd
000003e0: 1c9d 193c 6d1b a6bd ddca 8ebd 886d bbbd
000003f0: 4271 a3bd 01f7 89bd 4fe4 9a3d f4d6 bebc

fc2.bias f4 [128]
0.06631457 0.033597406 -0.09739465 -0.060204595 -0.053157657 -0.049045216 -0.03674779 -0.047284335
0.022776976 -0.034177963 0.008330138 -0.065498374 0.048075855 -0.032137997 -0.022415925 -0.028529076
0.015326581 -0.0432522 0.057855044 0.046668086 0.06020076 -0.11951757 0.024784151 -0.13569441
-0.035991978 -0.060824692 -0.115870275 0.14270923 -0.08696777 0.05254392 0.056218848 -0.1291992
-0.06953271 0.10306103 -0.084183425 0.10107542 -0.04942217 0.089940585 -0.03125228 -0.06373359
-0.13304786 -0.060533408 -0.030752283 -0.07052786 0.03795594 -0.08848031 -0.098145016 0.010921712
0.10031113 -0.068242416 -0.010064627 -0.052556265 0.14905113 0.0064861886 -0.028164072 -0.05057464
-0.012889216 -0.019452207 -0.03245696 -0.025116283 -0.048856013 -0.00608248 0.010240876 0.06645542
0.057217214 -0.049683522 -0.0986496 -0.04140557 -0.0056715296 0.017587071 0.06235735 -0.059051078
-0.038959753 0.037189964 -0.038347453 0.046520803 -0.044969354 -0.0010933534 0.0012370634 1.6557715e-05
0.053313337 -0.062326726 0.10205773 -0.045649447 -0.0065338328 0.023522818 -0.086988725 -0.09995873
0.029626738 0.0114403935 0.035563458 0.050342903 0.02617768 0.08923854 -0.108782426 -0.04116854
-0.011064541 -0.019474646 0.12396705 0.050451137 -0.017402936 0.034377657 -0.006584289 -0.021037685
-0.069924966 0.08647512 0.07594442 -0.07236036 -0.017421322 -0.08705747 -0.05266381 -0.14026645
-0.0048059756 0.02317024 0.07386005 -0.10335219 0.075909235 0.09978037 0.054167274 -0.013553918
-0.0733948 0.04245607 0.093638405 -0.046405908 -0.051598877 0.033293407 -0.060351077 0.039919283
00000000: efcf 873d 6f9d 093d d976 c7bd 1899 76bd
00000010: d8bb 59bd a3e3 48bd da84 16bd 38ad 41bd
00000020: c896 ba3c 31fe 0bbd 227b 083c 0324 86bd
00000030: 30eb 443d 22a3 03bd 9aa1 b7bc cfb5 e9bc
00000040: 571c 7b3c 3829 31bd 69f9 6c3d 0927 3f3d
00000050: 1295 763d a1c5 f4bd 2208 cb3c 7af3 0abe
00000060: 536c 13bd 5023 79bd 654d edbd 5e22 123e
00000070: 281c b2bd 4b38 573d bc45 663d cc4c 04be
00000080: 2a67 8ebd a911 d33d 5c68 acbd a100 cf3d
00000090: e76e 4abd c532 b83d 6402 00bd c286 82bd
000000a0: b33d 08be e1f1 77bd 36ec fbbc e970 90bd
000000b0: b077 1b3d 2a35 b5bd 4100 c9bd fbf0 323c
000000c0: ec6f cd3d aec2 8bbd 1be6 24bc 3d45 57bd
000000d0: dca0 183e 188a d43b 57b8 e6bc 5b27 4fbd
000000e0: 4a2d 53bc 3c5a 9fbc 97f1 04bd aac0 cdbc
000000f0: 3e1d 48bd 8a4f c7bb 59c9 273c c719 883d
00000100: 995c 6a3d f380 4bbd cd08 cabd e398 29bd
00000110: 3dd8 b9bb c312 903c 6c6a 7f3d 8bdf 71bd
00000120: 4394 1fbd 8154 183d 3812 1dbd 998c 3e3d
00000130: c931 38bd da4e 8fba f624 a23a 6ce5 8a37
00000140: 165f 5a3d 4f4a 7fbd a503 d13d eafa 3abd
00000150: c319 d6bb edb2 c03c 2527 b2bd 2ab7 ccbd
00000160: c6b3 f23c 7d70 3b3c fdaa 113d 5c34 4e3d
00000170: 9372 d63c b2c2 b63d 52c9 debd 58a0 28bd
00000180: 0c48 35bc 4b89 9fbc 70e2 fd3d daa5 4e3d
00000190: 9a90 8ebc 96cf 0c3d 05c1 d7bb 3957 acbc
000001a0: d234 8fbd de19 b13d c088 9b3d ab31 94bd
000001b0: 29b7 8ebc 304b b2bd 02b6 57bd 02a2 0fbe
000001c0: 727b 9dbb 84cf bd3c f043 973d 50aa d3bd
000001d0: 4d76 9b3d a759 cc3d 81de 5d3d 4111 5ebc
000001e0: 0350 96bd 6be6 2d3d 7ec5 bf3d 1f14 3ebd
000001f0: 5859 53bd ab5e 083d b132 77bd 6782 233d

fc3.weight f4 [1, 128]
0.03582666 0.010635327 0.021361826 0.028970052 0.005653081 0.021553056 -0.015272061 -0.020061195
-0.0133084 0.019933354 -0.015710996 0.010708073 -0.015256572 -0.0074205347 -0.025277805 0.08317271
-0.02816782 0.017062213 -0.010960578 -0.008731857 0.03464511 0.008140326 0.06881795 -0.053954817
0.019755064 0.03432306 -0.013822233 0.01938995 0.010810477 0.08773964 0.01406305 -0.02053552
0.018534686 0.008100156 -0.009092044 -0.013553943 0.012142227 0.012598415 -0.021909112 -0.019398369
-0.03501859 0.1013906 -0.018593164 0.0057696984 -0.039255533 -0.021466032 -0.030590726 0.021176234
-0.034182426 0.007854427 -0.014679947 0.008140853 0.041942723 0.018674238 0.008811378 -0.11133976
0.058086466 0.012962583 0.0068719625 -0.03319469 0.090423994 0.0060379766 -0.013031573 -0.012384987
-0.008062919 -0.010324899 -0.015619946 0.104281865 -0.025907315 0.0065052435 0.006672761 -0.028461855
-0.014437555 0.03532472 0.010483108 0.114377074 0.016945343 -0.012874286 0.009994041 0.009445323
0.03581832 0.009818158 0.014105413 -0.012621995 -0.009200121 -0.029034516 0.008513647 0.009556626
-0.015618077 0.06648552 0.009155914 -0.016065594 -0.010692104 -0.009659499 -0.065017134 0.008471907
0.006860391 -0.021218568 -0.006430561 -0.0042366493 0.022841718 -0.01104161 -0.007162453 0.022775609
0.0065269666 0.08031958 -0.015488146 -0.0073806583 0.0064733275 0.0111685945 -0.0090175485 0.039910153
-0.016177073 0.033507135 0.03142287 0.011213036 0.017428387 0.024408026 -0.036630455 -0.015078724
-0.018286297 0.015327614 0.01369496 -0.018982872 0.006446699 0.010154692 -0.0331182 -0.01587426
00000000: fabe 123d cb3f 2e3c fffe ae3c 9a52 ed3c
00000010: 7b3d b93b 0990 b03c ab37 7abc 6057 a4bc
00000020: 7a0b 5abc 464b a33c 59b4 80bc ea70 2f3c
00000030: b3f6 79bc f527 f3bb 6613 cfbc 7456 aa3d
00000040: 33c0 e6bc 0ec6 8b3c ff93 33bc 1010 0fbc
00000050: 08e8 0d3d 005f 053c 6df0 8c3d baff 5cbd
00000060: 5fd5 a13c 5696 0c3d a676 62bc acd7 9e3c
00000070: 6d1e 313c d7b0 b33d b568 663c 1b3a a8bc
00000080: 0ed6 973c 84b6 043c ccf6 14bc 5b11 5ebc
00000090: 31f0 463c 9569 4e3c bd7a b3bc 54e9 9ebc
000000a0: a76f 0fbd e0a5 cf3d b150 98bc bd0f bd3b
000000b0: 69ca 20bd 88d9 afbc 6799 fabc c879 ad3c
000000c0: df02 0cbd dbaf 003c 2984 70bc 3661 053c
000000d0: 22cc 2b3d b7fa 983c 995d 103c 1a06 e4bd
000000e0: 13ec 6d3d 0461 543c 332e e13b 28f7 07bd
000000f0: 3730 b93d 38da c53b 6182 55bc 67ea 4abc
00000100: 551a 04bc c429 29bc cdea 7fbc bb91 d53d
00000110: 943b d4bc f029 d53b 2da7 da3b d628 e9bc
00000120: 7f8b 6cbc a7b0 103d 58c1 2b3c 873e ea3d
00000130: f6d0 8a3c abee 52bc 0cbe 233c 8ec0 1a3c
00000140: 3bb6 123d 57dc 203c 641a 673c 7ccc 4ebc
00000150: 1bbc 16bc cbd9 edbc d37c 0b3c 6593 1c3c
00000160: f6e2 7fbc 8f29 883d b002 163c fe9b 83bc
00000170: ef2d 2fbc e042 1ebc b427 85bd c1cd 0a3c
00000180: 21cd e03b 90d2 adbc 75b7 d2bb 97d3 8abb
00000190: 8e1e bb3c dee7 34bc 03b3 eabb ea93 ba3c
000001a0: 2ae0 d53b 987e a43d fec1 7dbc 73d9 f1bb
000001b0: 351e d43b 7bfc 363c 57be 13bc d478 233d
000001c0: c885 84bc c73e 093d 44b5 003d e2b6 373c
000001d0: fac5 8e3c 57f3 c73c d109 16bd c10c 77bc
000001e0: 25cd 95bc ac20 7b3c d360 603c f881 9bbc
000001f0: d53e d33b de5f 263c f3a6 07bd bc0a 82bc
