checkpoint_actor.pth (torch, 82219 bytes, 6 tensors)

fc1.weight f4 [128, 24]
0	0x3ed5ad90	0.4173398
1	0x3ecbaa1f	0.3977823
2	0x3dc2f9be	0.09520291
3	0xbce25226	-0.027627062
4	0xbd84c12f	-0.06482159
5	0xbf728f71	-0.94750124
6	0x3d171f43	0.036895048
7	0xbe167e16	-0.14696535
8	0xbdbb65e5	-0.09150294
9	0xbe99e80e	-0.30059856
10	0x3d57596d	0.052575517
11	0xbf03a934	-0.5143006
12	0x3dbc808f	0.09204208
13	0x3ecc345c	0.39883697
14	0x3db2689c	0.08711359
15	0xbedf756c	-0.43644273
16	0x3d4724c5	0.04861905
17	0xbd699c20	-0.057033658
18	0x3e178280	0.14795876
19	0xbe1ef75d	-0.15524049
20	0x3c94d8ce	0.018169787
21	0x3ef19cd3	0.4718996
22	0x3e2f6a78	0.17130458
23	0xbe0684e1	-0.13136627
24	0x3f057c69	0.5214296
25	0x3f639508	0.8889928
26	0xbd44d4cf	-0.048054513
27	0x3dcde1d6	0.100528404
28	0xbeb89d24	-0.3605739
29	0xbfb0f40a	-1.3824475
30	0xbde35d4f	-0.111017816
31	0x3d1c7424	0.038196698
32	0x3ec70e7f	0.38878247
33	0x3f510729	0.8165155
34	0xbe07abc2	-0.13249114
35	0xbc60dc9c	-0.013724472
36	0xbe92a550	-0.28641748
37	0xbfcecbf2	-1.6155989
38	0xbda75e3a	-0.08172269
39	0xbde55238	-0.111973226
40	0x3f0e12a1	0.55497175
41	0x3f802480	1.0011139
42	0x3d415432	0.047199436
43	0x3e39ac13	0.18132047
44	0xbedd4f3b	-0.4322451
45	0xbfd578b6	-1.6677463
46	0x3d715af4	0.05892463
47	0x3e4dae41	0.20086004
48	0x3e6f235b	0.23353331
49	0x3ea126c1	0.3147488
50	0x3d593a1e	0.05303394
51	0x3dfe39c9	0.124133654
52	0xbe6d590d	-0.23178501
53	0x3d6f4a8f	0.058420714
54	0x3d219dd0	0.039457142
55	0x3de342e5	0.110967435
56	0x3d1e6fd4	0.038680866
57	0x3d8100ec	0.06299004
58	0xbe887308	-0.26650262
59	0xbe7bd632	-0.24593428
60	0xbf0e1b9c	-0.5551088
61	0x3e168243	0.14698128
62	0xbe446c17	-0.19181858
63	0xbeb3f445	-0.351473
64	0x3e41a407	0.18910228
65	0x3e4b8dc2	0.19878295
66	0x3cb21e43	0.021742946
67	0x3deee05a	0.116638854
68	0xbf1d7b73	-0.61516494
69	0x3dd92175	0.106020845
70	0x3bb35ef0	0.005473964
71	0x3dd4bdc6	0.10387759
72	0x3e4747ed	0.19461031
73	0x3f320b9b	0.6954896
74	0x3b290387	0.0025789456
75	0x3ede4ed8	0.43419528
76	0x3eb2d8a0	0.34930897
77	0xbe69e0e7	-0.228397
78	0x3decf6b1	0.1157049
79	0x3ea029c6	0.3128187
80	0x3e884d35	0.26621404
81	0x3f8b3319	1.0874969
82	0xbe157d86	-0.14598665
83	0x3d53c046	0.051697038
84	0x3ed11075	0.40832868
85	0xbdfb63c8	-0.12274891
86	0xbe313ddc	-0.17308754
87	0x3c788a6e	0.015169723
88	0x3eeef436	0.46670693
89	0x3f5bbbbb	0.8583333
90	0x3da2e965	0.07954673
91	0xbe9fc9ec	-0.31208742
92	0x3f61178e	0.87926567
93	0x3e31415c	0.17310089
94	0x3cdec030	0.027191252
95	0xbeb2c3be	-0.34914964
96	0x3e8137a6	0.2523777
97	0xbf038bcb	-0.5138518
98	0xbe32b21d	-0.17450757
99	0xbcde0678	-0.027102694
100	0x3dffe44a	0.124947146
101	0xbdf4fc95	-0.11962239
102	0xbd23122d	-0.039812256
103	0x3cf95556	0.0304362
104	0x3e9f26a9	0.31084183
105	0xbf0f0440	-0.5586586
106	0x3d19d7a8	0.03755918
107	0x3e121de3	0.14269213
108	0xbea70fee	-0.3262934
109	0x3d6229db	0.055215698
110	0xbdaeb2aa	-0.08530171
111	0x3dd4d7f1	0.1039275
112	0x3e3018a9	0.17196907
113	0xbeb2566c	-0.3483156
114	0x3ea0fd33	0.31443176
115	0x3d88e26b	0.06683811
116	0xbf32dbe4	-0.69866776
117	0xbdc37f9e	-0.095458254
118	0x3e730b74	0.23734838
119	0x3e0113bc	0.12605184
120	0x3ee4128c	0.445454
121	0xbf6975c5	-0.9119533
122	0x3e06558b	0.1311857
123	0x3e7a9cdd	0.24473901
124	0x3e1f2681	0.15542032
125	0x3c32d05c	0.010913935
126	0x3e6d8528	0.23195326
127	0x3e1e2897	0.15445171
128	0x3ec6c141	0.38819316
129	0xbf3ca422	-0.73687947
130	0x3ddc8401	0.10767365
131	0xbd8d4d0d	-0.06899462
132	0x3da4c516	0.08045404
133	0xbd22a998	-0.03971252
134	0xbcf29b1f	-0.029614983
135	0xbde91ca6	-0.113824174
136	0x3ee63a66	0.4496643
137	0xbf2c8d1e	-0.6740283
138	0x3e0c1bdf	0.13682507
139	0x3ef1054e	0.4707436
140	0xbd1d1d6e	-0.038358144
141	0x3ccf46dc	0.025302343
142	0xbbda6f9d	-0.0066661374
143	0x3f1267df	0.57189745
144	0x3eaf4039	0.34228685
145	0xbe51acd4	-0.20476085
146	0x3e033ae9	0.12815441
147	0xbf015e69	-0.50534683
148	0xbe211334	-0.15729982
149	0xbd250bba	-0.040294386
150	0x3cf27ac8	0.029599562
151	0xbf0b44ad	-0.54401666
152	0x3e51b8cb	0.20480649
153	0xbec81411	-0.3907781
154	0xbd1b22c2	-0.037874945
155	0xbe3cb839	-0.1842965
156	0xbe987827	-0.2977917
157	0x3dde3f16	0.108518764
158	0xbd4119e9	-0.04714385
159	0xbe4d55cf	-0.20052265
160	0xbda0e5d1	-0.07856334
161	0xbee9bcd6	-0.45651883
162	0x3e08762f	0.13326333
163	0x3ede9093	0.43469676
164	0x3e0bbe00	0.13646698
165	0x3eea8273	0.4580265
166	0x3e006252	0.12537506
167	0x3ec30f75	0.3809773
168	0xbd3370d3	-0.04380877
169	0x3f86f49a	1.0543396
170	0xbe0caf72	-0.13738802
171	0x3e0ec636	0.13942799
172	0x3f09c09e	0.53809536
173	0xbea2da29	-0.31807068
174	0xbe64e960	-0.2235465
175	0x3e616079	0.22009458
176	0xbe77bd95	-0.24193414
177	0x3f8effeb	1.117185
178	0xbdc565d3	-0.09638562
179	0xbdd1bf61	-0.10241581
180	0x3e2e5187	0.17023288
181	0xbf6a8011	-0.91601664
182	0xbb5c11d2	-0.0033579958
183	0xbd916862	-0.070999876
184	0xbe9fd71a	-0.31218797
185	0x3f93ba0f	1.1541156
186	0x3d98ea8b	0.074666105
187	0xbe3b673b	-0.18301098
188	0x3c788d6a	0.0151704345
189	0xbfdfdf7a	-1.7490075
190	0xbd2064ec	-0.039158747
191	0xbe0602e8	-0.13087046
192	0xbb66c624	-0.0035213316
193	0xbe0ab4b9	-0.13545503
194	0xbd91fbd4	-0.071281105
195	0x3b8459ea	0.004039039
196	0x3ec4d0e7	0.3844063
197	0x3e223a73	0.15842609
198	0xbe41abce	-0.18913195
199	0xbd860fb1	-0.06545962
200	0x3d91b59a	0.07114716
201	0x3ec35bb4	0.381559
202	0xbd1b167e	-0.037863247
203	0xbcd3d79a	-0.025859643
204	0x3ee03ac5	0.43794838
205	0xbda00fc9	-0.07815511
206	0xbc81eb02	-0.01585913
207	0xbcd59cca	-0.02607574
208	0x3e066b61	0.131269
209	0x3eeb6fa9	0.45983627
210	0x3da21755	0.079146065
211	0xbdf87d64	-0.12133291
212	0x3f8d0fec	1.1020484
213	0x3d426b3e	0.047465555
214	0x3e109a7a	0.14121428
215	0xbe4214f5	-0.18953307
216	0x3ecfddcb	0.40598902
217	0x3ee32c55	0.4436976
218	0x3e9048c0	0.28180504
219	0x3e91f680	0.28508377
220	0x3e73dbb0	0.23814273
221	0xbd975a0a	-0.073902205
222	0x3de60cc2	0.11232902
223	0x3ebd2264	0.369403
224	0x3f235d42	0.63814175
225	0x3f425d50	0.75923634
226	0xbda8b56d	-0.08237729
227	0x3ea6ce63	0.32579336
228	0x3e6e29e5	0.23258169
229	0xbd599604	-0.05312158
230	0x3ce0f138	0.027458772
231	0x3e8f705b	0.28015408
232	0x3ed9baf6	0.42525452
233	0x3f0f8cb0	0.5607405
234	0x3d40189b	0.046898466
235	0xbf2a79ed	-0.66592294
236	0x3f494b09	0.7863012
237	0x3eb82c2a	0.35971195
238	0x3bd9dca7	0.0066486183
239	0xbf10053b	-0.5625798
240	0xbcfc5152	-0.030800495
241	0x3bfc42c9	0.007698391
242	0xbde121c5	-0.10992769
243	0x3e389552	0.18025711
244	0x3e98810b	0.29785952
245	0x3eec3252	0.4613214
246	0xbdb22ff5	-0.08700553
247	0x3dd933a7	0.10605555
248	0x3e1d0f84	0.1533795
249	0x3e9ea7e8	0.30987477
250	0xbe236cf2	-0.15959528
251	0x3e3e99b3	0.18613319
252	0x3e8fb8ec	0.28070772
253	0xbeccf4d5	-0.40030542
254	0xbe19c130	-0.15015101
255	0x3e548b0f	0.20756172

fc1.bias f4 [128]
0	0xbf363468	-0.71173716
1	0xbe9012cb	-0.28139338
2	0xbec2764d	-0.3798088
3	0xbe11647d	-0.1419849
4	0xbefb6912	-0.491036
5	0xbe0733c6	-0.13203344
6	0xbdab5fbf	-0.083678715
7	0xbe9f7e93	-0.31151256
8	0xbe8453ad	-0.2584509
9	0x3e2e0de2	0.16997483
10	0xbed65333	-0.4186035
11	0xbe079c64	-0.13243252
12	0xbf047dd0	-0.51754475
13	0xbf4c7a92	-0.7987453
14	0x3e3edd8c	0.18639201
15	0x3eb83542	0.35978132
16	0xbee582af	-0.44826266
17	0xbe5f3925	-0.21799143
18	0xbe435ec9	-0.19079126
19	0xbf2602c4	-0.6484797
20	0xbee83b04	-0.45357525
21	0xbe9423d1	-0.28933576
22	0xbed076d3	-0.40715656
23	0xbefed1ab	-0.4976934
24	0xbce5506e	-0.027992453
25	0xbebf7c3c	-0.3739947
26	0x3eb2b1f6	0.34901398
27	0xbe2070d2	-0.15668038
28	0x3daee1c8	0.08539158
29	0xbe5e4310	-0.2170527
30	0xbe399a42	-0.18125251
31	0xbe424e8b	-0.18975274
32	0xbea719fe	-0.32637018
33	0xbe946b6f	-0.28988215
34	0xbe6767ba	-0.22598162
35	0xbee48430	-0.446321
36	0xbdd0af85	-0.10189728
37	0xbf5c9c1c	-0.86175704
38	0xbebf0e1f	-0.3731546
39	0xbe9fd6d3	-0.31218585
40	0xbed28bda	-0.41122323
41	0xbf1ea6f4	-0.619735
42	0xbf05563b	-0.520847
43	0xbee51f83	-0.44750604
44	0x3bc41b72	0.005984717
45	0x3d3a100c	0.04542546
46	0xbead8e9a	-0.3389786
47	0xbea869e7	-0.32893297
48	0xbe6e6602	-0.232811
49	0xbf03a753	-0.5142719
50	0x3c1c578b	0.009542356
51	0xbebce718	-0.3689506
52	0xbf110797	-0.56652206
53	0xbef2f8e1	-0.47455505
54	0xbe3885a2	-0.18019727
55	0xbf100b30	-0.5626707
56	0xbdc8d936	-0.09807055
57	0xbd4a64fa	-0.049412705
58	0xbd60c3a0	-0.054874063
59	0x3de0016c	0.10937771
60	0x3d8c9ce4	0.06865862
61	0xbf25787f	-0.6463699
62	0x3d8d48b8	0.068986356
63	0xbeaa9a55	-0.3332087
64	0xbf03c67c	-0.5147474
65	0xbe2f457d	-0.17116351
66	0xbed65574	-0.4186207
67	0xbf0a4c6e	-0.5402287
68	0xbe9d6199	-0.30738524
69	0xbecc66db	-0.39922222
70	0xbea76a8c	-0.32698476
71	0x3cc35f78	0.023849234
72	0x3eac9f53	0.33715305
73	0xbebc05cb	-0.3672317
74	0xbe13f9ac	-0.14450711
75	0x3dd9519b	0.10611268
76	0xbd8bf29a	-0.06833382
77	0xbe936c61	-0.28793624
78	0xbd949e68	-0.07256776
79	0x3e5791be	0.2105169
80	0xbdfd82ee	-0.123784885
81	0xbeb67481	-0.3563576
82	0xbe21d45d	-0.15803666
83	0xbeffe1f0	-0.49977064
84	0x3d340820	0.04395306
85	0xbebe8c95	-0.3721663
86	0xbef7bd26	-0.48386496
87	0xbee14243	-0.43995866
88	0xbe419c1f	-0.18907212
89	0xbe90d85a	-0.28290063
90	0xbefc66a8	-0.4929707
91	0xbe42addf	-0.19011639
92	0xbdb6a6cc	-0.08918533
93	0xbd561885	-0.052269477
94	0x3dcab320	0.09897447
95	0xbe69f97a	-0.22849074
96	0xbd7ff516	-0.06248959
97	0xbe9f5c14	-0.31124938
98	0xbe9b6d26	-0.3035671
99	0xbdfdc5df	-0.123912565
100	0xbef1a774	-0.4719807
101	0x3e2a04bb	0.16603367
102	0xbeb2586b	-0.34833083
103	0x3e46a2de	0.19398066
104	0x3df2b58d	0.11851034
105	0x3e9c5d11	0.30539754
106	0xbea7b6ab	-0.32756552
107	0xbf02d783	-0.51110095
108	0xbf3f91c1	-0.7483178
109	0xbe655a7a	-0.22397795
110	0xbeebd7f6	-0.46063203
111	0x3d7b6bf9	0.061382268
112	0xbe6f9905	-0.23398216
113	0xbe69d136	-0.22833714
114	0xbf06962c	-0.52572894
115	0xbf262602	-0.64901745
116	0xbea17009	-0.3153079
117	0xbf22802d	-0.6347683
118	0xbe68d077	-0.22735773
119	0x3db88d4e	0.09011327
120	0xbebeb661	-0.3724852
121	0x3d3d90a2	0.04628051
122	0x3eccde95	0.40013567
123	0xbeb53390	-0.35390902
124	0xbf1d7427	-0.6150536
125	0xbe3cbe0e	-0.18431875
126	0xbf022869	-0.5084291
127	0xbe1bc96d	-0.15213557

fc2.weight f4 [128, 128]
0	0xbd3a4d76	-0.04548403
1	0x3deb77dd	0.114974715
2	0xbe37dff6	-0.17956528
3	0xbed5e6ce	-0.41777653
4	0x3f0f73c4	0.5603602
5	0xbe2d0b19	-0.16898765
6	0x3dccac80	0.09993839
7	0xbd873308	-0.0660153
8	0xbe3c7fb1	-0.18408085
9	0xbf18fa0d	-0.5975655
10	0xbf8a0dab	-1.0785421
11	0x3d9d216f	0.076723926
12	0xbecc6787	-0.39922735
13	0xbdc9ea47	-0.09859138
14	0xbe544cf7	-0.20732485
15	0x3f01eff1	0.50756747
16	0x3e892c86	0.2679178
17	0xbedeba37	-0.43501446
18	0xbe18db42	-0.1492739
19	0xbe17908f	-0.14801238
20	0x3e04aecd	0.12957306
21	0xbcdf6daa	-0.027273972
22	0xbe1c9461	-0.15290977
23	0xbe1f48a3	-0.15555052
24	0x3e5be557	0.21474205
25	0xbd8e835a	-0.06958647
26	0xbee4422b	-0.44581732
27	0x3df3ef30	0.11910856
28	0x3f0f5be8	0.5599961
29	0x3e0b860b	0.13625352
30	0xbe94e17c	-0.2907828
31	0xbdd75a27	-0.10515242
32	0xbd7e2b20	-0.062052846
33	0xbe6e8344	-0.23292261
34	0xbe14a639	-0.14516534
35	0xbe408a6a	-0.18802801
36	0x3e1cd919	0.15317191
37	0xbd42d955	-0.047570545
38	0x3e64cc16	0.22343478
39	0xbedf588a	-0.43622237
40	0xbf07f2ae	-0.53104675
41	0x3ebb1b99	0.36544493
42	0xbed2484c	-0.41070783
43	0xbeed942e	-0.46402115
44	0xbe8bdfc5	-0.2731916
45	0xbeab4206	-0.3344881
46	0xbc7fa8ff	-0.015604257
47	0xbed86b64	-0.42269433
48	0x3ce6bd02	0.028166298
49	0xbe646e4d	-0.22307701
50	0x3cde1b75	0.027112702
51	0x3e7eaf47	0.2487155
52	0xbec12181	-0.37720874
53	0xbeb35ffa	-0.35034162
54	0xbe9b6e5c	-0.30357635
55	0xbe241763	-0.16024546
56	0xbd8f6a5d	-0.07002709
57	0x3e2d2ce8	0.16911662
58	0x3e2b213e	0.167119
59	0x3e440a80	0.1914463
60	0xbdc05830	-0.093918204
61	0x3dd20112	0.102541104
62	0xbec1747a	-0.37784177
63	0x3e9486f3	0.29009208
64	0x3eb6c1b4	0.3569466
65	0xbf174491	-0.59089
66	0x3e23a359	0.15980281
67	0xbe935f63	-0.28783712
68	0x3e3b0f1c	0.18267483
69	0x3d6a8945	0.057259817
70	0xbd956b31	-0.07295836
71	0x3e35b468	0.17744601
72	0x3dfa9cb0	0.12236917
73	0x3dc72147	0.09723144
74	0xbf570b2c	-0.8400142
75	0xbe9b9c85	-0.30392852
76	0x3ecf8d41	0.40537456
77	0x3e9e7774	0.3095051
78	0x3f141e4c	0.5785873
79	0xbeee282d	-0.46515027
80	0xbe35ffb7	-0.17773329
81	0xbe92c2e3	-0.28664312
82	0x3e83a94c	0.257151
83	0x3ee0ce52	0.4390741
84	0xbf3ab6ef	-0.72935385
85	0x3d3207a8	0.043464333
86	0xbec84152	-0.39112335
87	0x3eab6dbc	0.33482158
88	0xbf0f6f18	-0.5602889
89	0x3ecf86be	0.40532488
90	0x3e28b2de	0.16474482
91	0xbf0e55ab	-0.5559947
92	0xbe2abd64	-0.1667381
93	0xbf4d5aca	-0.8021666
94	0xbead22f2	-0.33815724
95	0xbe26f7b9	-0.16305436
96	0x3d15a0a1	0.03653014
97	0x3e449e67	0.1920105
98	0xbf11661f	-0.5679645
99	0x3d8a4441	0.067513
100	0xbf20322d	-0.6257656
101	0x3e1a50c6	0.15069875
102	0xbe80489e	-0.25055403
103	0xbe89be50	-0.2690301
104	0x3eadfabc	0.33980358
105	0xbe093d87	-0.13402377
106	0x3de7ab1f	0.11311936
107	0x3e3bc5f7	0.18337236
108	0xbe0ba945	-0.1363879
109	0xbb4ddea6	-0.0031413226
110	0xbdd4eb0f	-0.10396396
111	0x3e814ec0	0.25255394
112	0xbebd56a8	-0.36980176
113	0xbe1c2202	-0.15247348
114	0x3e2ffacc	0.17185515
115	0xbf3178ef	-0.69325155
116	0x3eb49f0c	0.35277593
117	0x3d57c03a	0.052673556
118	0xbe55ce52	-0.20879486
119	0xbd1f92d7	-0.038958397
120	0x3ebea468	0.37234807
121	0xbeade646	-0.33964747
122	0xbee0aab5	-0.4388024
123	0x3f01fe20	0.5077839
124	0x3eb655e6	0.3561241
125	0x3e1c23f8	0.15248096
126	0xbea24f49	-0.31701115
127	0xbe73ec1b	-0.23820536
128	0xbe140a9a	-0.14457169
129	0x3f315204	0.6926577
130	0x3e6cee2f	0.23137735
131	0x3e10712f	0.14105676
132	0xbe9b643e	-0.30349916
133	0xbebbe8eb	-0.3670114
134	0xbe1fc76a	-0.15603414
135	0x3e767532	0.24068144
136	0xbf27095d	-0.6524866
137	0xbd4b1f8f	-0.049590643
138	0xbef5ebdc	-0.4803151
139	0x3e954493	0.2915388
140	0x3e9f5e1d	0.3112649
141	0xbef1f1f3	-0.47254905
142	0x3ebbd28b	0.3668407
143	0xbeab3207	-0.33436605
144	0x3e5b53ed	0.21418734
145	0xbf0c344e	-0.5476731
146	0xbd495341	-0.049151663
147	0xbe85e61f	-0.2615213
148	0xbefd8888	-0.49518228
149	0x3df917a4	0.12162712
150	0xbd3b37f1	-0.045707647
151	0xbd6ec1b3	-0.058290195
152	0x3f65264f	0.8951158
153	0x3e8ada85	0.27119842
154	0x3f3efbc9	0.74602944
155	0x3d4de334	0.050265506
156	0x3f383ae4	0.7196486
157	0x3e746c65	0.23869474
158	0x3f024f3c	0.5090215
159	0xbf3963ab	-0.72417706
160	0xbd730b8b	-0.05933718
161	0xbe499afe	-0.19688031
162	0xbd7f42b6	-0.06231948
163	0xbe1bc172	-0.15210512
164	0xbdd589e3	-0.104266904
165	0x3e8d14aa	0.27554828
166	0x3c99aee4	0.018760152
167	0xbecd87b7	-0.40142605
168	0x3c2ac6d2	0.010423379
169	0xbe74d293	-0.23908453
170	0xbf2c48c0	-0.6729851
171	0x3e2741d6	0.16333708
172	0x3e7415ea	0.23836485
173	0xbe78fa97	-0.24314342
174	0xbe2c9ddd	-0.16857095
175	0xbee9171f	-0.45525452
176	0x3da36fae	0.079802856
177	0xbe63af97	-0.22234951
178	0x3e607896	0.21921
179	0xbe4acd7b	-0.19804947
180	0x3f01c17d	0.50685865
181	0xbefa3eb9	-0.4887598
182	0x3e59e508	0.21278775
183	0xbe6d047a	-0.23146239
184	0x3dfa5199	0.12222595
185	0xbf7efcb3	-0.9960434
186	0xbed01d24	-0.40647233
187	0xbe8b6846	-0.27227992
188	0xbec2c791	-0.38042882
189	0x3e6b590b	0.22983186
190	0x3f453ef9	0.77049214
191	0x3f0f17e1	0.5589581
192	0xbdb0275b	-0.086012565
193	0x3d151bff	0.036403652
194	0x3e02fe08	0.12792218
195	0xbea8d60a	-0.329758
196	0x3eb34058	0.35010028
197	0xbe9f972f	-0.3117003
198	0xbf0d2e83	-0.55149096
199	0x3ec3a609	0.38212612
200	0x3f0d4f1a	0.55198824
201	0xbf058858	-0.5216117
202	0xbdf775d9	-0.120830245
203	0xbedb62c9	-0.42848805
204	0x3e26b0e8	0.16278422
205	0xbf4a416c	-0.79006076
206	0x3e8f7f85	0.28026977
207	0xbd25c525	-0.040471215
208	0xbdae2aaf	-0.08504235
209	0x3c99a70a	0.018756408
210	0xbeaddebe	-0.33959
211	0x3e832751	0.25615934
212	0xbda13980	-0.078722954
213	0x3f896c77	1.0736226
214	0xbea755db	-0.3268269
215	0xbed76519	-0.4206932
216	0x3e43cb84	0.19120604
217	0xbead99b5	-0.33906332
218	0x3e8809a7	0.26569864
219	0xbf33bc05	-0.7020877
220	0xbde77876	-0.11302273
221	0x3e9289bc	0.28620708
222	0xbdb1af4f	-0.086760156
223	0x3f110d4b	0.5666091
224	0xbeac63e8	-0.33669972
225	0xbe3a3586	-0.1818448
226	0xbf329cc9	-0.69770485
227	0x3e7f6d07	0.24943934
228	0xbd93a5bb	-0.07209345
229	0xbf823898	-1.0173521
230	0x3ee2d306	0.44301623
231	0x3da6a894	0.081376225
232	0x3db28c09	0.08718116
233	0xbee7cd34	-0.45273745
234	0xbdcc40bd	-0.09973285
235	0xbf156c03	-0.5836794
236	0x3e4c1813	0.19931059
237	0xbca61a0c	-0.020276092
238	0xbeaeb93b	-0.34125695
239	0x3e73c175	0.23804267
240	0x3e922a9b	0.2854813
241	0x3e6624f7	0.22475038
242	0x3f0aa343	0.5415537
243	0x3e485858	0.1956495
244	0xbe876a2d	-0.26448193
245	0xbdaee39c	-0.08539507
246	0xbe248a6a	-0.16068426
247	0xbeb18443	-0.3467122
248	0x3d87d551	0.06632484
249	0xbf05714c	-0.52126
250	0x3c32318d	0.010876072
251	0xbdb9578f	-0.090499036
252	0xbe98ce1c	-0.2984475
253	0xbe8207ef	-0.25396678
254	0x3e4fc89f	0.20291375
255	0xbe6738fe	-0.22580335

fc2.bias f4 [128]
0	0xbe783b4a	-0.24241367
1	0x3d6b74a9	0.057484303
2	0xbf0c141d	-0.5471819
3	0xbcad196f	-0.021130292
4	0xbeb2190a	-0.34784728
5	0xbde8cb85	-0.11366943
6	0xbe21112d	-0.15729208
7	0xbe388f22	-0.18023351
8	0x3c802205	0.015641222
9	0xbd5d66fa	-0.054053284
10	0xbe87c294	-0.2651564
11	0xbe02f113	-0.12787275
12	0x3ea217ae	0.3165869
13	0x3b8c0aa8	0.0042737313
14	0x3d155481	0.036457542
15	0x3b383243	0.002810613
16	0x3d504306	0.05084517
17	0xbe9e7182	-0.30945975
18	0x3d9a0a06	0.07521443
19	0x3e429a07	0.1900407
20	0xbdfd71e5	-0.12375239
21	0xbe461b49	-0.19346346
22	0xbd878fc4	-0.06619218
23	0xbde2c359	-0.11072416
24	0xbf191d02	-0.5980989
25	0xbdd8f5d3	-0.10593762
26	0xbe7117a5	-0.23544176
27	0xbe9d1ff5	-0.30688444
28	0xbd5fa390	-0.054599345
29	0x3eed79da	0.46382028
30	0xbeb9cca4	-0.3628894
31	0xbe99a67b	-0.30009827
32	0xbe332efe	-0.17498395
33	0xbe632a13	-0.22184019
34	0x3e37a121	0.1793256
35	0x3b2000bf	0.0024414507
36	0xbe4d8a34	-0.20072252
37	0xbdf9b5b4	-0.1219286
38	0xbe473a05	-0.19455726
39	0x3e00bb7c	0.1257152
40	0xbe57aa3b	-0.21061032
41	0x3e55428e	0.2082617
42	0xbe4f2c73	-0.202318
43	0xbeb52eab	-0.35387167
44	0x3d57d8bc	0.05269693
45	0xbd0cf0f7	-0.03440949
46	0xbdd761c5	-0.10516695
47	0x3e565134	0.20929414
48	0xbcb53cd3	-0.02212373
49	0xbf460ff5	-0.773681
50	0xbd9db02e	-0.07699619
51	0xbdb1476d	-0.086562015
52	0xbe79a0d5	-0.24377759
53	0xbeb5d4de	-0.35513967
54	0xbd9a6605	-0.0753899
55	0xbe86ccd6	-0.26328152
56	0xbde727a4	-0.11286858
57	0x3ef6609d	0.48120585
58	0x3dd4fb9b	0.103995524
59	0xbf0d710c	-0.5525062
60	0xbc67fbff	-0.014159202
61	0xbdcecbd3	-0.1009747
62	0xbd4a92ff	-0.049456593
63	0xbd1b6be5	-0.037944693
64	0x3e3fe242	0.18738654
65	0xbe3ca84d	-0.18423577
66	0xbe3f5351	-0.18684126
67	0xbda647df	-0.08119177
68	0xbed97f16	-0.4247977
69	0x3d9c42ff	0.07629966
70	0x3c9cd014	0.019142188
71	0x3e2e2185	0.17004974
72	0xbd75406e	-0.059875898
73	0xbf827aa8	-1.0193682
74	0xbe18f040	-0.14935398
75	0x3e88fffb	0.26757798
76	0xbde813cc	-0.11331901
77	0x3d222e5e	0.039595
78	0xbe99d2ec	-0.30043733
79	0xbf1f0996	-0.62124
80	0x3d8aff1c	0.067869395
81	0xbc61d67e	-0.013784049
82	0xbcccd172	-0.025002215
83	0x3e3c2a42	0.18375495
84	0x3de67417	0.11252611
85	0xbe2b5323	-0.16730933
86	0x3f08ab1d	0.533861
87	0xbdf8e754	-0.12153497
88	0xbdf83c13	-0.12120833
89	0x3a672f3a	0.0008818988
90	0xbe42309c	-0.18963856
91	0xbf056030	-0.52099895
92	0xbeeb2fb6	-0.45934838
93	0xbf17390b	-0.59071416
94	0xbec6abab	-0.38802847
95	0xbd4861cc	-0.04892139
96	0xbe926b1b	-0.2859734
97	0xbf193028	-0.59839106
98	0xbec4f23b	-0.38466057
99	0x3d6d3d34	0.057919696
100	0xbd5ec904	-0.054390922
101	0xbe57770e	-0.2104151
102	0xbf14b40f	-0.5808725
103	0xbec0af3e	-0.376337
104	0xbe81b386	-0.25332278
105	0xbf00c857	-0.50305694
106	0x3e5bc09d	0.21460195
107	0x3b3f76a6	0.0029215007
108	0xbf0df796	-0.5545591
109	0x3e638444	0.22218424
110	0xbe83f50a	-0.25772887
111	0xbeacfad4	-0.33785117
112	0xbe2440da	-0.16040364
113	0x3e2c54ab	0.16829173
114	0x3dbb964e	0.09159528
115	0xbe16d4d8	-0.14729631
116	0xbebe7e7a	-0.3720587
117	0x3eced297	0.40395042
118	0xbdaa5e6a	-0.08318789
119	0xbf2a4a5d	-0.6651972
120	0xbe86bbcd	-0.26315156
121	0x3dacd5f9	0.084392495
122	0xbe00dac6	-0.12583455
123	0xbe0cc435	-0.13746722
124	0xbeaf9ee9	-0.34300926
125	0xbe8faeda	-0.2806309
126	0xbe1d94d3	-0.15388803
127	0xbe016f79	-0.1264018

fc3.weight f4 [2, 128]
0	0xbdd4ea1e	-0.10396217
1	0xbe396956	-0.18106589
2	0x3f1e67b9	0.6187702
3	0x3eb19b92	0.34689003
4	0xbe27f53b	-0.16402142
5	0x3e68b5f9	0.22725667
6	0x3e8e0920	0.27741337
7	0x3da8bbed	0.08238969
8	0xbc477d92	-0.012175934
9	0xbdf3f2ec	-0.11911568
10	0x3f3bd1ed	0.73367196
11	0x3d9857b9	0.07438607
12	0xbe1b96da	-0.15194264
13	0xbef744fe	-0.48294824
14	0x3f4c13f2	0.79717934
15	0x3df4aabb	0.11946627
16	0x3b7b26bd	0.003832265
17	0x3dc7a507	0.09748273
18	0xbdc6549b	-0.09684106
19	0xbe70346b	-0.23457496
20	0x3e0db8a7	0.1383997
21	0xbd0573c6	-0.032581113
22	0xbe2d2b3e	-0.16911027
23	0xbdd16b4b	-0.10225543
24	0x3e06b20e	0.1315386
25	0x3be35c8b	0.006938522
26	0x3e02f3aa	0.12788263
27	0x3de9e521	0.11420656
28	0xbd082a85	-0.033243675
29	0x3df38dbd	0.11892269
30	0x3fa5ef58	1.2963667
31	0xbd65a87e	-0.05606889
32	0xbd3cc64f	-0.04608756
33	0x3dcecdab	0.10097822
34	0xbfa9428b	-1.3223432
35	0x3da66f4c	0.08126697
36	0x3ee65647	0.449877
37	0x3ed714ea	0.42008144
38	0x3db75f6c	0.08953747
39	0x3d164ebd	0.036696184
40	0x3de3d589	0.11124713
41	0x3e7c1340	0.24616718
42	0xbe0c5cb1	-0.13707234
43	0x3d4b5827	0.049644616
44	0x3e11265e	0.14174792
45	0xbd8c0de2	-0.068385854
46	0xbd8e5dd5	-0.06951491
47	0x3d6fc663	0.058538806
48	0xbc184988	-0.009294875
49	0xbe25de46	-0.16198072
50	0xbebeee50	-0.37291193
51	0xbe58c083	-0.21167187
52	0x3d877279	0.06613631
53	0x3e7cd21b	0.24689524
54	0xbc48e1e1	-0.012260885
55	0xbf745f10	-0.95457554
56	0x3ed407f8	0.4141233
57	0x3d06fe58	0.032957405
58	0xbeb168ef	-0.3465037
59	0xbe531f92	-0.20617512
60	0xbe1ccf79	-0.1531352
61	0x3f100896	0.562631
62	0xbe121d38	-0.14268959
63	0x3e3998d0	0.181247
64	0xbafe009b	-0.0019378843
65	0xbe00f2df	-0.12592648
66	0x3d0525fb	0.032506924
67	0x3ce6415f	0.028107343
68	0xbf08dfde	-0.53466594
69	0x3e089f05	0.13341911
70	0xbbf86e15	-0.007581482
71	0xbdea2ea1	-0.11434675
72	0xbda8fdbd	-0.08251522
73	0xbe3410bd	-0.1758451
74	0xbce023a8	-0.027360752
75	0xbf05cf38	-0.52269316
76	0xbcbec9e1	-0.023289623
77	0x3e10ea50	0.14151883
78	0xbed9ac6b	-0.42514357
79	0xbd24c349	-0.0402253
80	0xbdb6cbc5	-0.08925585
81	0xba29733e	-0.0006464011
82	0xbd282a63	-0.041056048
83	0x3d0696e9	0.032858763
84	0xbf0da6b9	-0.55332524
85	0xbf14c700	-0.5811615
86	0x3a7aeaac	0.0009571712
87	0x3c52a9f1	0.0128579
88	0x3dd37e5e	0.10326837
89	0xbe270bda	-0.16313115
90	0xbd014495	-0.031559546
91	0xbba2db87	-0.0049700174
92	0x3dfcba39	0.12340207
93	0xbdb6900c	-0.089141935
94	0xc01d45ab	-2.4573772
95	0xbe8a6683	-0.27031335
96	0x3ec68634	0.38774264
97	0xbd97cbce	-0.074119195
98	0xbe089844	-0.13339335
99	0xbe0b4ac4	-0.1360274
100	0xba59c749	-0.0008307589
101	0x3e42757f	0.18990134
102	0xbea65ee4	-0.3249427
103	0xbde15305	-0.11002163
104	0xbcf6c07a	-0.030121077
105	0x3dc7baa2	0.09752394
106	0xbe849f9d	-0.25903025
107	0x3e0b8cf4	0.13627988
108	0xbd922838	-0.07136577
109	0x3c8ea973	0.017414784
110	0xbd666a2c	-0.056253597
111	0xbe49a215	-0.19690736
112	0x3eec39c0	0.4613781
113	0x3ec1ca51	0.37849668
114	0xbdf5ce00	-0.12002182
115	0xbe03c3b1	-0.12867619
116	0xbcfd43d9	-0.030916141
117	0x3e07ecba	0.13273898
118	0xbf359b6d	-0.70940286
119	0x3daeb456	0.0853049
120	0xbf13a9a1	-0.5768071
121	0x3f13299a	0.57485354
122	0x3e3ea1ed	0.18616457
123	0xbde42b8b	-0.11141118
124	0xbd978805	-0.073989905
125	0x3e10df17	0.14147602
126	0x3b295959	0.002584061
127	0xbe81c3e7	-0.25344774
128	0x3ef8209f	0.48462388
129	0x3e86a810	0.26300097
130	0xbed33a69	-0.412555
131	0xbd066b4a	-0.032817163
132	0xbeaeaeb0	-0.3411765
133	0x3e9d95df	0.30778405
134	0xbd87a857	-0.06623905
135	0x3ffdbd41	1.9823381
136	0x3c0df1a8	0.008663572
137	0x3ebdc5ee	0.3706507
138	0x3f0a1e9c	0.53952956
139	0xbc446a40	-0.011988223
140	0x3e399a21	0.18125202
141	0x3d81d849	0.06340081
142	0x3fbf4b20	1.4944801
143	0x3db63694	0.08897129
144	0x3ee13281	0.43983844
145	0x3e19f748	0.15035737
146	0xbec0b972	-0.37641484
147	0x3de26862	0.11055066
148	0x3d6e58d1	0.05819017
149	0xbc1f2924	-0.0097143985
150	0xbecae332	-0.3962646
151	0x3dfff3bb	0.1249766
152	0x3d811a86	0.06303887
153	0xbcdb70c0	-0.026787162
154	0xbe28daf8	-0.1648978
155	0x3cdb9665	0.026805112
156	0xbf077b0a	-0.5292212
157	0xbe2824ed	-0.16420336
158	0x3f7f2f51	0.99681574
159	0xbe30e107	-0.17273341
160	0x3ebeb7cd	0.37249604
161	0xbf1f4c94	-0.62226224
162	0x3ee8f554	0.4549967
163	0x3f03512e	0.51295745
164	0xbe8df59f	-0.27726457
165	0x3e02dc07	0.12779246
166	0xbe08798b	-0.13327615
167	0xbdb85cb6	-0.09002058
168	0xbf0c3e7f	-0.5478286
169	0xbf1458b9	-0.5794788
170	0xbd843690	-0.064557195
171	0x3e0d247d	0.1378345
172	0x3e0b3498	0.13594282
173	0xbf2bfbc4	-0.6718104
174	0x3ed01684	0.40642178
175	0x3eea4208	0.45753503
176	0x3c10ddc7	0.008841938
177	0xbd4b2e8b	-0.049604934
178	0xbe6dc2e0	-0.2321887
179	0xbd2d35e4	-0.042287722
180	0x3ddd6d01	0.108118065
181	0xbe3e1d69	-0.18565907
182	0x3c48c3c1	0.012253703
183	0x3e2b00d9	0.16699542
184	0x3daeff02	0.08544733
185	0xbed2416e	-0.41065544
186	0x3d2457de	0.04012286
187	0x3e6708d7	0.22561966
188	0xbbb1c198	-0.0054246895
189	0x3f4ada54	0.7923939
190	0xbe1138ee	-0.14181873
191	0xbd293d0a	-0.041317977
192	0xbe6fec02	-0.23429874
193	0x3ea2f7a1	0.3182955
194	0xbe16ed27	-0.14738904
195	0x3c4a5dc7	0.01235146
196	0xbd3853f9	-0.045001958
197	0xbcdda332	-0.027055357
198	0xbbe11b39	-0.0068697003
199	0x3d137543	0.0360005
200	0x3e5038e1	0.20334198
201	0x3c8b3e8a	0.016997594
202	0xbe2dd18f	-0.16974472
203	0x3dc2f908	0.09520155
204	0x3eb1a97f	0.34699628
205	0x3e9e8937	0.30964062
206	0xbe4b2708	-0.19839108
207	0xbe8ee8d2	-0.27912003
208	0x3e1ccfc0	0.15313625
209	0xbca680aa	-0.020325024
210	0x3e93a08c	0.28833425
211	0xbf10ecd3	-0.56611365
212	0x3db09f40	0.086241245
213	0xbd9d5d75	-0.07683841
214	0xc00f277c	-2.236785
215	0xbc593527	-0.013257301
216	0xbd548874	-0.051887944
217	0x3eeeb614	0.4662329
218	0xbd5b997b	-0.053613167
219	0xbee4dc94	-0.44699538
220	0xbef9cb8c	-0.48788106
221	0xbd83fe7e	-0.06445025
222	0x3eed9309	0.4640124
223	0xbdf9b1db	-0.12192126
224	0x3e7b04e6	0.24513587
225	0xbdaf9fb9	-0.085753866
226	0xbdaee11d	-0.08539031
227	0xbd8f6d16	-0.07003228
228	0x3f28f854	0.6600392
229	0x3d82dd48	0.06389862
230	0x3de71d8f	0.11284935
231	0x3daeef16	0.08541696
232	0x3ee1dfa9	0.44115952
233	0xbc986a80	-0.01860547
234	0x3e7e4117	0.24829517
235	0xbcf7b51e	-0.03023773
236	0x3e86ffff	0.26367185
237	0xbf050392	-0.5195857
238	0x3ebc7d9f	0.3681459
239	0x3c431fee	0.011909468
240	0xbdf685c4	-0.120372325
241	0xbe85d12b	-0.26136145
242	0xbdb231f1	-0.08700932
243	0xbebe64df	-0.37186334
244	0x3e9416a3	0.2892352
245	0x3d41a9b1	0.04728097
246	0xbf01f2dc	-0.507612
247	0xbd40960d	-0.0470181
248	0x3e6d65a8	0.2318331
249	0x3e9307fa	0.28717023
250	0xbd92cd68	-0.071680844
251	0xbe2683a8	-0.1626116
252	0x3e6f0158	0.23340356
253	0x3f006c6c	0.5016544
254	0xba07ce83	-0.0005180614
255	0x3e0e33de	0.13886973

fc3.bias f4 [2]
0	0x3e4731f8	0.19452655
1	0xbec4f45a	-0.38467675
