checkpoint_actor_base.pth (torch, 82219 bytes, 6 tensors)

fc1.weight f4 [128, 24]
000000 54 73 e4 bd 3d 5a d5 3e 8c 59 70 bd af a2 fb be
       -0.111548096 0.4167041 -0.05867915 -0.49147555
000010 05 3c 12 bf 24 92 55 be 65 96 ef bd 99 5e 1c bf
       -0.5712283 -0.2085653 -0.11698607 -0.61081845
000020 9c 5b e8 bd 86 0d a3 3e 4b bb a2 be 4c cb e8 be
       -0.11345598 0.31846255 -0.31783518 -0.45467603
000030 02 87 5b bd 82 4d 2f bf 77 0c 91 be 48 ee c0 be
       -0.05359555 -0.6847764 -0.28329822 -0.37681794
000040 45 76 95 bd 06 e6 08 3e bc 1c cb bd 16 33 0a 3d
       -0.07297949 0.13368997 -0.0991759 0.033740126
000050 12 ca df 3e c4 eb cf bf 70 4c 9b bd 17 fb 6b 3d
       0.43708855 -1.6243825 -0.07582939 0.057612505
000060 25 0a 69 3f 8c b5 57 3f b7 9d 3a bd 2c 11 41 3e
       0.91031104 0.84261394 -0.045560565 0.18854207
000070 54 c8 b5 bf 7c cd 80 3d 14 42 de bd c6 3d 01 3e
       -1.420176 0.06289193 -0.10852447 0.12621221
000080 96 95 a6 3f c6 13 0f 3f db e5 1a 3d 24 c5 8d be
       1.30144 0.55889547 0.037816864 -0.2768947
000090 32 9c 65 bf f4 a7 96 3e 14 6c b5 3d f0 11 c0 be
       -0.8969146 0.29425013 0.08858505 -0.37513685
0000a0 d4 50 4e 3f bb f0 19 3e d7 0f d9 bd 0f 2a 79 bd
       0.80592084 0.15033238 -0.10598724 -0.060831126
0000b0 49 0e df be e6 7a 67 3e c7 0c c1 bd fe 22 29 bd
       -0.43565586 0.22605476 -0.09426265 -0.041293137
0000c0 f5 dd 10 be 10 67 1e 3e f8 63 cb bc 08 6a 45 3e
       -0.1414717 0.15469003 -0.024827942 0.19278729
0000d0 28 e6 6d bf 7c a2 81 be 9e 4e 1d bd 62 ee 37 3e
       -0.92929316 -0.25319278 -0.038405053 0.1796203
0000e0 5c c3 89 be 3c fd 80 3e cd ee df bd f3 2e ce 3e
       -0.2690686 0.25193202 -0.109342195 0.40270194
0000f0 62 b1 c2 bd f6 08 4e bf e1 f7 0d bd 9b 25 98 3e
       -0.09506489 -0.80482423 -0.034660224 0.2971619
000100 72 51 ab be 9c 99 b4 3e 0e ce e3 bb 13 91 4a be
       -0.33460575 0.35273445 -0.006952054 -0.19781904
000110 5a a2 28 3f 6f 04 4d c0 9b 3a be bc 35 a2 57 be
       0.6587273 -3.2033956 -0.023221305 -0.21057971
000120 8f 2b 28 be d5 23 65 bf a7 35 24 be 18 a9 b7 be
       -0.16422866 -0.895078 -0.16036092 -0.35871196
000130 cf f5 16 3f ea 8d 7a 3d 6a 76 41 bd 22 ce f5 be
       0.58968824 0.061170496 -0.04723207 -0.4800883
000140 46 74 aa 3d e7 07 05 bf ec 82 0f 3e b9 37 ca be
       0.08322959 -0.51965183 0.14014786 -0.39495638
000150 da 54 2c bf ec b6 4d 3e 34 85 e7 3d 83 eb dc be
       -0.67316973 0.2008931 0.11304703 -0.4314843
000160 85 dc 97 3e 14 de c8 be bd 51 85 3c cb 44 55 3e
       0.2966043 -0.39231932 0.016274327 0.20827024
000170 e0 c8 ec be 37 7f 2a 3f de c8 13 bd dd 4f 2f 3e
       -0.46247005 0.66600364 -0.036080234 0.17120309
000180 10 92 0d 3f 75 89 99 bf fd 2f 55 bd 45 ad 07 bf
       0.55301 -1.1995074 -0.05204772 -0.52998763
000190 8a 0a 83 3f af 2f a5 be 3e 41 a9 3d f1 e5 f1 be
       1.0237591 -0.32262942 0.08264397 -0.47245744
0001a0 fe c5 41 3f f6 6f 45 bf 21 c1 c4 bd 3d 32 d5 be
       0.7569274 -0.77123964 -0.09607149 -0.4163989
0001b0 08 2c 3a 3f a0 37 55 bf 96 2f 60 be 49 0b e9 be
       0.72723436 -0.83288 -0.21893153 -0.45516422
0001c0 41 d2 1c 3f 6d 94 3f bf ab 6a be bd 1f 68 2e 3f
       0.6125832 -0.74835855 -0.09297689 0.68127626
0001d0 09 8f 33 3f 73 61 88 bf ad 23 2e be f3 90 3d 3f
       0.7014013 -1.0654739 -0.17005797 0.740493
0001e0 79 b1 ed 3e b9 67 5c bf 8b 8f a3 bd 70 e5 fd 3e
       0.46424463 -0.8609577 -0.07986363 0.4958911
0001f0 8e 14 27 3f 49 00 f6 3d 5d 3c ab 3c c9 ab cf 3e
       0.6526574 0.12011773 0.020902807 0.4056075
000200 e3 c8 d0 3e 1a d8 57 bf a6 6b d3 bd ea b7 11 3e
       0.40778264 -0.8431412 -0.10323267 0.14230314
000210 38 39 54 3f 61 6f 64 3e 12 4b 76 be 7a 9e c7 3d
       0.8289981 0.22308113 -0.24052075 0.09747024
000220 53 ea 19 3f 15 53 23 bf c3 68 37 be f7 0d 9f 3e
       0.60123175 -0.6379865 -0.17911057 0.31065342
000230 5c 46 89 3f 15 bc b4 3e 67 2c a5 be f1 d7 d2 3e
       1.0724597 0.35299745 -0.3226044 0.41180375
000240 a6 92 d5 be 12 28 09 3f 5a 17 6b be ab b8 2c be
       -0.41713446 0.5357677 -0.22958127 -0.1686732
000250 c3 49 52 be 5a 17 5d be bb 01 a8 be 39 51 54 be
       -0.2053595 -0.21590939 -0.3281382 -0.20734109
000260 a2 c8 9b be 14 24 a5 3e d7 74 31 bd 78 1b 5d be
       -0.30426508 0.32254088 -0.043324318 -0.2159251
000270 d1 5a bd 3c 49 c7 39 bf e8 6a 57 bd eb b8 6d be
       0.023114594 -0.7256971 -0.052592188 -0.23215072
000280 ad d4 11 be 7a 94 47 3f 5d 56 34 be 6f 46 1a 3f
       -0.14241286 0.7796093 -0.1761107 0.60263723
000290 1c 68 00 3e d2 d3 d2 bf 05 6a 3c be 8f 85 0c 3f
       0.12539715 -1.6470892 -0.18399818 0.54891294
0002a0 af fa 97 3e 22 37 86 3f a5 fd 1d 3e bb 8c ea 3d
       0.29683444 1.0485575 0.15428789 0.114526235
0002b0 fb 83 88 3f 7c aa 35 bf b2 89 8b 3d 69 e0 47 3e
       1.0665277 -0.70963264 0.06813373 0.195192
0002c0 db f2 54 3e 89 22 94 3f 56 5c 25 be 36 16 e7 be
       0.20795767 1.1573039 -0.16148505 -0.45134133
0002d0 9f 4c 6f 3f 12 9d 7e bf ff 33 8c bd a4 00 d7 be
       0.9347629 -0.9945842 -0.06845855 -0.41992676
0002e0 ba 44 86 3d 69 d9 8a 3f 0d 47 0d be be 8e cc be
       0.06556077 1.0847598 -0.13796635 -0.39952654
0002f0 af 4b 5e 3f 02 62 82 be 2e eb 80 be ba dc b1 be
       0.86834234 -0.254654 -0.25179428 -0.34738714
000300 73 0e fe 3e 8c 3b ce bf 43 e5 60 3e 97 08 67 be
       0.496204 -1.6111922 0.21962456 -0.2256187
000310 bf 56 b3 3d 6e c9 1c bd 06 6f d0 3d 78 19 97 be
       0.0875678 -0.038278036 0.10177426 -0.2951162
000320 29 d3 5a 3e ad e4 dc bf a5 1c 23 bd 4a ba 02 bf
       0.21369614 -1.7257286 -0.03982224 -0.51065505
000330 c3 7e 9a bd 9b 67 a3 3e 9d f8 91 bc 77 c8 02 bf
       -0.07543709 0.31914982 -0.017818743 -0.51087135
000340 80 32 c8 3e c0 9f 9a bf 68 4d b1 be 7a 94 22 bf
       0.39101028 -1.2080002 -0.3462937 -0.6350781
000350 08 30 9e be 24 ee 25 be 5c 86 91 be 34 0a 34 bf
       -0.3089602 -0.16204125 -0.2842282 -0.7032807
000360 82 b1 4c 3f 96 4c c3 bd 40 82 c9 be 82 58 4a be
       0.79958355 -0.09536092 -0.39357185 -0.19760326
000370 c1 98 f4 be 7b f0 78 bf ed 23 10 bf 09 01 e8 bd
       -0.47772792 -0.97241944 -0.5630482 -0.113283224
000380 b1 c3 8f 3f f6 07 0d be 8d 57 a2 3d a5 bf bd 3e
       1.1231595 -0.13772568 0.07926855 0.37060276
000390 23 44 04 bf ea 4f c9 bf dd a4 41 3e a5 61 a6 3e
       -0.5166647 -1.5727513 0.18910547 0.32496372
0003a0 98 2f 58 3f fd 2c 06 be 45 32 95 3e e9 65 21 bd
       0.8444762 -0.13103099 0.29139915 -0.03940383
0003b0 ed 6b 02 bf d3 49 18 c0 8d 96 80 3e fa f0 82 3d
       -0.5094593 -2.3795059 0.2511486 0.06393619
0003c0 e2 d4 8f 3e 15 5d 0f bf 16 a3 00 3d cc 0f e1 3c
       0.28092104 -0.56001407 0.03140553 0.027473353
0003d0 6a 50 e3 bf 8a fc 07 bf fa 8a 5e 3d b1 66 3f bd
       -1.7758915 -0.5311972 0.054331757 -0.046728794
0003e0 79 01 ae 3e 29 3c 36 bf 1e 97 21 bd c0 bd 57 be
       0.339855 -0.7118555 -0.039450757 -0.21068478
0003f0 59 b5 8d bf 10 7e 5b bd 7f d0 f5 bc 6c cc 41 be
       -1.1070968 -0.05358702 -0.030006645 -0.18925637

fc1.bias f4 [128]
000000 da 11 08 3e c2 8a 88 3d 6c 9d 0e bf 37 19 7d be
       0.1328806 0.06667091 -0.55708957 -0.2471665
000010 37 f5 f5 be c5 96 fe be b0 2a e8 bc 2a 9e f8 be
       -0.48038647 -0.49724403 -0.028340667 -0.4855817
000020 31 ba c1 be 0c 56 ea be c9 01 55 bf 42 7e 00 bf
       -0.37837365 -0.45768774 -0.8320585 -0.50192654
000030 8d eb 46 bd 54 99 21 bd 9e eb ab be 75 64 84 be
       -0.048564482 -0.039452866 -0.335782 -0.25857893
000040 00 77 48 3e a2 3d 92 bb 5b 90 af be 5f db 27 bf
       0.19576645 -0.0044629136 -0.34289822 -0.6556911
000050 86 d6 9e bd d3 a8 1c bf 36 fd ac be 4d 69 bd be
       -0.07755761 -0.61195105 -0.33786935 -0.369944
000060 e6 56 61 bf 66 a7 16 be e5 e2 29 be 1c f8 3f 3e
       -0.8802322 -0.14712295 -0.1659046 0.1874699
000070 a8 32 a4 be be b9 19 bf f7 01 3d be a7 f2 c5 be
       -0.32069898 -0.60049045 -0.18457781 -0.38661692
000080 ee 1d ab be a9 43 bf be de 60 51 3d 7d bd 32 be
       -0.33421272 -0.37356308 0.05111777 -0.17455097
000090 c4 28 32 3d 37 4d 41 bf 0f ea 12 be 8e 35 39 bf
       0.04349591 -0.75508446 -0.14347099 -0.7234734
0000a0 79 77 28 bf c8 31 6f be 41 2d 6c 3d d8 c2 07 be
       -0.658073 -0.23358834 0.057660345 -0.1325792
0000b0 3f da 79 be fa d0 d3 bd 94 2f 46 3d 13 52 fc be
       -0.2439966 -0.103425935 0.048385218 -0.49281368
0000c0 92 de 4e bf 75 6b 82 be 85 18 b7 be 34 09 ec be
       -0.80808365 -0.25472608 -0.35760894 -0.4610077
0000d0 4d b1 11 bf c6 45 8d be bb 5b 3c bf 6c 56 fc be
       -0.56911165 -0.27592295 -0.7357747 -0.49284685
0000e0 bb c0 c4 3e d6 d4 06 bf 52 72 4e 3e 4e 68 33 bf
       0.38428292 -0.5266851 0.20160797 -0.7008103
0000f0 70 1b 2c bf 97 84 d9 be 18 71 c3 bd 56 4d 1c bf
       -0.67229366 -0.4248397 -0.09543055 -0.61055505
000100 86 81 fd be 38 4b 37 bf c5 e4 c8 be e6 44 4a bf
       -0.4951288 -0.7159915 -0.39237037 -0.7901138
000110 91 41 15 bf 13 d3 75 3e 91 0d fb be 6d 62 5f 3e
       -0.5830317 0.240063 -0.49033788 0.2181489
000120 ab 78 00 bf 8c fe 99 bf 3c 60 2c bf 56 d1 d9 be
       -0.50184125 -1.2030807 -0.6733434 -0.42542523
000130 35 fa f2 be 8a 65 0e bf d4 48 53 be b1 9e c0 be
       -0.47456518 -0.55623686 -0.2063325 -0.37621072
000140 85 b3 e0 bd 45 4d 85 be d0 38 1f bf 13 c9 4b bf
       -0.10971741 -0.26035514 -0.62196064 -0.7960369
000150 2f 2a 08 bf 64 b6 f7 be 0c b9 7b bf 14 67 04 bf
       -0.5318937 -0.4838134 -0.98329234 -0.51719785
000160 3e 58 c8 be 42 fd 90 bf a7 11 0d bf e2 87 2e be
       -0.39129823 -1.1327288 -0.5510506 -0.17044023
000170 8b 08 8d bf 13 6e 2d bf 09 41 4b bf 34 59 95 be
       -1.1018232 -0.67746085 -0.7939611 -0.2916962
000180 ea 7f 8c be af c7 61 be d0 02 1b 3e 35 bc 1c bf
       -0.2744134 -0.2204883 0.15137792 -0.6122468
000190 c3 d2 b4 be 71 fb 1c bf 9f a8 32 bf f8 15 3c bf
       -0.35317048 -0.6132117 -0.69788545 -0.7347102
0001a0 79 38 3c be 45 8f 72 3d de d8 16 bf 07 86 14 bf
       -0.18380918 0.059218664 -0.58924663 -0.5801701
0001b0 7e 89 02 bf 0c fd 98 be a1 32 51 be ff f4 97 bf
       -0.50991046 -0.2988056 -0.2042947 -1.1871642
0001c0 67 fb da be 3c 57 96 bd ee 4a c5 be 0e b6 4b bf
       -0.4276993 -0.073408574 -0.3853373 -0.7957467
0001d0 41 26 b3 3d 96 e6 64 bf a2 96 33 bf 99 7f 82 be
       0.08747531 -0.89414346 -0.7015172 -0.25487974
0001e0 ef 5e 5d bf eb e4 37 bd e4 7f f6 bd b8 cb 8f 3d
       -0.8647298 -0.044896048 -0.12036112 0.07021278
0001f0 73 2b 63 bf 43 ae fa be 63 e2 8f be 55 00 d2 be
       -0.88738173 -0.48961076 -0.28102407 -0.41015878

fc2.weight f4 [128, 128]
000000 3a 8e 00 3f ad 34 25 3e 1d 8b 07 3f b7 4d df be
       0.5021702 0.16133375 0.52946645 -0.4361398
000010 9a d1 80 bf 7d 90 93 be b3 97 5c be 49 03 ac bc
       -1.0063965 -0.28821173 -0.21542244 -0.02099766
000020 47 13 ac 3f e6 37 fe be df e7 38 3f 94 81 e6 3d
       1.3443383 -0.49652022 0.7222881 0.11255184
000030 8f 34 46 be 32 e0 ec 3e 62 ad ad 3e a6 69 37 bf
       -0.19355987 0.46264797 0.33921343 -0.7164558
000040 03 8b ae bd 5f 5a 2c 3e d3 09 56 be 67 e0 02 3e
       -0.08522608 0.16831349 -0.20902185 0.12780915
000050 c8 2a e3 3c 2a ac 9b be f0 19 27 bf cf 14 6d bf
       0.02773036 -0.30404788 -0.6527395 -0.92609876
000060 9b 0b 2b bf 85 76 b9 be 3b b0 0f bf 8a 49 88 3c
       -0.66814584 -0.36223236 -0.5612828 0.016636629
000070 b9 ce f2 bd ef 3c 77 3e 74 42 48 bc dc cc db bd
       -0.118558355 0.24144338 -0.012222875 -0.10732433
000080 87 61 b2 3e d7 e4 32 bf 8c ca 86 bf 15 49 d6 bf
       0.34840032 -0.6988043 -1.0530562 -1.6741053
000090 0e 65 51 bf 2e b7 d4 bd df 1f 9f bf 74 10 ac bf
       -0.8179482 -0.10386501 -1.2431601 -1.3442521
0000a0 80 9c 8e 3e 45 e0 62 bf 2e 7b c0 be 98 d5 bc be
       0.27853775 -0.8862346 -0.3759398 -0.3688171
0000b0 a6 4a e5 be 67 da ba be 15 81 eb 3d 4b 6b 5e bf
       -0.44783515 -0.36494753 0.1149923 -0.86882466
0000c0 c3 b4 6c 3e 22 94 f3 bd d5 de 8e bf 7d eb c8 3d
       0.2311583 -0.118934885 -1.1161753 0.09810541
0000d0 55 e6 c1 be dc 37 a9 3f 5d 7d 53 bf 1d 64 b5 bd
       -0.37871042 1.3220172 -0.82613164 -0.08856986
0000e0 9f 2a e7 bd 63 37 b3 bd b0 62 75 3d fa 8f 47 3e
       -0.11287426 -0.087507986 0.05990857 0.19488516
0000f0 5e 3e fe bc 6e 9f b4 3e 13 96 9b 3e 02 44 2c be
       -0.031035598 0.35277885 0.30387935 -0.16822818
000100 3d 5b d9 3b 72 27 0b 3f ab 23 8f bd d4 7d 9d be
       0.006633191 0.54357064 -0.06989225 -0.30760062
000110 1e 62 03 3f 9b 76 d1 3e ff 77 b2 3e b9 4a 22 3f
       0.5132159 0.409108 0.34857175 0.6339527
000120 73 1a 02 3d 96 4d d5 be 2f 79 a1 3d 10 3d fe be
       0.031763505 -0.41660756 0.07884442 -0.49655962
000130 e3 96 03 3d 18 85 98 bf 1b 45 15 be 5e 5c 12 3e
       0.03212632 -1.1915617 -0.14577143 0.14293048
000140 2b 0f 8b be e1 81 af be 59 1b e2 be f1 35 2d 3e
       -0.2716001 -0.34278777 -0.4416149 0.16915108
000150 1d 54 48 bf c8 b4 e4 be 65 5e d0 3d c7 86 01 bd
       -0.78253347 -0.44669175 0.10174254 -0.031622674
000160 41 7c a4 3d 94 36 92 3c 73 9b fa be c3 3f fb 3e
       0.08031512 0.01784829 -0.48946723 0.49072084
000170 8d ec a3 be 64 13 0c c0 d0 c0 18 be d4 21 1d 3f
       -0.3201641 -2.1886835 -0.14917302 0.6137974
000180 c6 c2 75 bf 11 c9 81 bf e4 20 a1 bd 5e 8c a5 bf
       -0.96000326 -1.0139486 -0.078676015 -1.2933462
000190 62 1a 62 3e fc 0f 9a be e4 f8 ad be 6c f8 55 bf
       0.22080377 -0.3009032 -0.3397895 -0.83582187
0001a0 69 24 84 bf 68 93 ef be 47 cd c3 3d c7 71 32 bf
       -1.0323611 -0.4679215 0.09560638 -0.6970486
0001b0 de 51 80 be fb d0 87 bf 93 55 8d be 98 ec 98 3d
       -0.2506246 -1.0610651 -0.2760435 0.07467002
0001c0 8f 6a dc be 1b 80 4f 3e a7 8b 83 3f f0 8b 0b 3e
       -0.43050048 0.20263712 1.0276994 0.136276
0001d0 81 03 4e 3f 1c e2 1b be ee 5c b3 bc 0e 16 e7 3d
       0.80474097 -0.15222973 -0.021894898 0.112835035
0001e0 78 90 7e bf d6 cf ce 3e b9 04 0e 3d 69 87 8e 3e
       -0.9943919 0.4039294 0.034672473 0.27837685
0001f0 dd 67 bf be 4f 9f db be 1a a0 f2 3e 77 5f ee be
       -0.3738393 -0.4289498 0.47387773 -0.4655721
000200 57 17 44 bf 97 f3 e1 bd 09 12 cb be f9 7b 4f be
       -0.76598114 -0.11032789 -0.39662197 -0.20262136
000210 7c 0b 2d bf cb 11 bd be 30 c4 1b bd d3 0a c2 be
       -0.6759565 -0.36927637 -0.038028896 -0.37898883
000220 d7 c1 d1 be 74 82 47 bf 44 04 9a 3e b4 d4 51 be
       -0.409682 -0.7793343 0.3008138 -0.20491296
000230 58 7d 4d be 67 13 6c 3f 99 69 3e bd 2d 54 61 3f
       -0.20067346 0.92217106 -0.046487425 0.8801907
000240 aa eb fd bf 18 d3 c8 bd 48 0b 2b be a0 d8 2b bf
       -1.9837544 -0.09805888 -0.16703522 -0.6712742
000250 2e 3f 69 be 90 e1 6d bc 31 87 21 be e1 08 29 3e
       -0.22778007 -0.01451911 -0.15774228 0.16507293
000260 11 f7 7b bf f5 f4 8f be dc 90 79 bf 71 3d 08 c0
       -0.9842387 -0.28116575 -0.9748666 -2.12875
000270 28 e6 9f be 6c bc dc be b7 0d ee bd e5 09 f0 be
       -0.31230283 -0.43112504 -0.1162371 -0.4688255
000280 7a 68 6d 3e 7b 9a 3a bd 20 d2 d9 bd a6 8b eb 3e
       0.23184386 -0.04555748 -0.10635781 0.4600498
000290 0e 5e 90 3e f6 63 5a bf 4e 58 29 3e 98 25 33 3e
       0.28196758 -0.8530878 0.16537592 0.1749481
0002a0 a9 b7 83 bc 97 c4 f7 be 26 e5 7b be d9 f3 66 3d
       -0.016078787 -0.48392174 -0.24599132 0.056384895
0002b0 78 72 ae 3c 83 f2 33 3c e1 7a f9 bf 32 8b f5 be
       0.021294817 0.010983112 -1.9490625 -0.4795776
0002c0 e5 8b 69 bd 01 35 8e 3d 08 0e f9 bd ef 27 98 3e
       -0.05701818 0.069437034 -0.121608794 0.29717967
0002d0 ec 31 90 3d 62 d6 14 bf eb da 2e bf fe 2f 67 3e
       0.07040772 -0.5813962 -0.6830279 0.22576901
0002e0 d1 d6 d6 be 2e 66 8d 3c af 89 97 bf dc 1f 21 bf
       -0.41960767 0.017260637 -1.1838893 -0.6293924
0002f0 e4 3f 26 bf 91 51 48 be fb 88 11 bf 69 65 1f bf
       -0.6494124 -0.19562365 -0.5684964 -0.62264115
000300 ff 0c 95 be a3 4c 37 3f 7d 9e c5 be 8f 6c d0 be
       -0.29111478 0.71601313 -0.3859748 -0.40707824
000310 de 95 f3 be 2a 32 6f bf 1c 86 e7 be ee 7f 56 bd
       -0.47575277 -0.9343592 -0.45219505 -0.052368097
000320 b7 1b 1a 3e ff 6f 6c 3e 8e 81 d9 3e c0 f8 d3 bc
       0.15049635 0.23089598 0.42481655 -0.02587545
000330 cd 80 54 bf 91 e6 5d 3f 52 4a 26 3c 1f 87 7b be
       -0.83009034 0.8667994 0.010149555 -0.24563263
000340 c4 8b b0 3e 58 15 4a 3e 5b 4f 6f be da b3 a8 bd
       0.34481633 0.19734704 -0.23370115 -0.08237429
000350 da 20 30 bf c6 f3 95 bf 21 1c 0a 3d b3 a0 55 bc
       -0.6880013 -1.1715019 0.033718232 -0.013038802
000360 58 cb 15 3e 1f 5a c1 3d 6b 47 8e be 8e 38 5f be
       0.1462835 0.09441017 -0.27788863 -0.21798918
000370 2e b6 84 be 89 98 ae 3e a5 e6 47 be cc c0 f0 bf
       -0.25920242 0.3410075 -0.19521578 -1.8808837
000380 f4 13 bb be ed 75 1f bd d5 12 89 bf 42 fe b9 3e
       -0.3653866 -0.038930822 -1.0708872 0.36326796
000390 80 81 15 bf 4a ad ac be ca af 0f 3f 87 3a b9 be
       -0.58400726 -0.3372596 0.5612761 -0.36177465
0003a0 43 3a f8 be f6 ee cd be 8f e3 7e be 1a bd 79 be
       -0.4848195 -0.40221375 -0.24891494 -0.24388543
0003b0 dd e1 55 3e 52 e4 64 3e 1d 5d 96 be 2b 3e 46 bf
       0.20886941 0.22352722 -0.29367915 -0.7743861
0003c0 73 56 0a be ee 5f 88 be 0f 3f 49 bf 9d fd 02 bf
       -0.1350954 -0.2663569 -0.78611845 -0.51168233
0003d0 41 2c a6 3e b8 0a 03 be 6b 4a 5c bd 96 d5 5e be
       0.32455638 -0.12797058 -0.053781908 -0.21761164
0003e0 e0 f7 d2 be 43 1b 54 be de 31 2e 3f 77 dc f5 be
       -0.4120474 -0.20713525 0.6804484 -0.48019764
0003f0 3e 17 99 3e a9 6d 57 bf bb ee ae bc 29 c5 a1 bd
       0.29900545 -0.84151703 -0.02135407 -0.078989334

fc2.bias f4 [128]
000000 9f a9 c6 be e2 db df 3d f1 d0 d7 be ca 43 be bd
       -0.38801286 0.10930611 -0.42151597 -0.092902735
000010 1c 78 91 be b4 99 32 bd a9 f9 17 bf ec 72 1d bf
       -0.2841195 -0.043603614 -0.59365326 -0.6150348
000020 74 67 f4 3e d1 8c 76 3e 7b d8 1a bf 0a 04 38 bf
       0.47735178 0.24077155 -0.60486573 -0.71881163
000030 d9 01 49 bf 54 da b0 bf 0e cb 7e be b7 14 43 be
       -0.78518444 -1.3816628 -0.24882147 -0.19050871
000040 fd 12 81 bf 3b f8 20 be 99 af 7d be 13 c6 bb 3e
       -1.008392 -0.15719692 -0.24774016 0.36674556
000050 1d 1c b4 3e dd 6e 6a bf 41 4e ea 3e 61 e9 1a bf
       0.351777 -0.91575414 0.45762828 -0.6051236
000060 9c 10 58 bf 97 f9 a1 be 6e 90 d7 be b7 6a cf be
       -0.84400344 -0.31635734 -0.4210238 -0.40511104
000070 46 61 d5 be 2f 33 34 be 80 fb 21 be 8f bd 51 be
       -0.41675776 -0.1759765 -0.15818596 -0.20482467
000080 70 88 f8 be 97 1b 91 3d e2 39 11 be 74 7a c1 be
       -0.48541594 0.070853405 -0.14182237 -0.37788737
000090 1c de 66 be b1 4e 52 bf 19 38 9c 3d 36 42 a8 be
       -0.22545666 -0.82151324 0.07627887 -0.32863015
0000a0 59 72 8c be 52 06 88 be 28 e6 31 be f5 ab 10 bf
       -0.2743099 -0.26567322 -0.17372954 -0.56512386
0000b0 fd c0 fb bd f3 40 8d bf fc b1 39 be fe 1b 02 3d
       -0.12292669 -1.1035446 -0.18134302 0.031764977
0000c0 0f e4 ae be 9e 75 1e bf fd 71 b6 be 0c 01 96 be
       -0.3415837 -0.6189822 -0.3563384 -0.29297674
0000d0 14 34 e6 3e 94 2e 4c be 72 f4 0e bf bd 7f af be
       0.44961607 -0.19939643 -0.55841744 -0.34277144
0000e0 ce bc 09 bf 3b c8 28 bf 1f 11 4a bd 23 ff fa be
       -0.5380372 -0.6593053 -0.049332734 -0.4902278
0000f0 cd a4 b1 bd 52 e2 b5 bd 67 93 39 bf 4c 03 fa be
       -0.086740114 -0.08881058 -0.72490543 -0.4883064
000100 a7 a6 3b bf da d5 33 be 67 8d f3 be 58 b4 d6 3c
       -0.73301166 -0.17562047 -0.4756882 0.026209041
000110 fd c7 44 bf 5d 44 02 be 36 49 1f be ee df 7e bf
       -0.7686766 -0.12721391 -0.15555272 -0.9956044
000120 50 59 a2 bd c1 25 9b bf c4 2e 07 be 18 99 83 be
       -0.07927191 -1.2120897 -0.13201433 -0.2570274
000130 fd ac 42 be cc de dd be aa d5 0a be 2c fa d5 be
       -0.19011302 -0.43334043 -0.13558069 -0.41792428
000140 fe 9d 11 be 67 f0 0c bf 2c dc 8f 3e 43 6c 8a 3b
       -0.14220425 -0.55054325 0.28097665 0.0042243316
000150 52 65 39 bf 00 ea 07 be a4 c9 a8 bb c2 d7 dc be
       -0.7242023 -0.13272858 -0.0051509906 -0.4313336
000160 d4 72 75 be 67 dc b7 be b0 39 0d bf fd eb 97 bd
       -0.23969585 -0.3591034 -0.5516615 -0.07418058
000170 19 f2 5c be a5 f8 a2 be e0 00 fa 3c 9d cd 29 bf
       -0.21576728 -0.31830326 0.030517995 -0.66329366
000180 f7 0e 9f be 1c 39 11 be c9 73 73 be 12 61 68 be
       -0.31066105 -0.14181942 -0.23774637 -0.2269328
000190 87 8c 5a be f7 fb 5f be ee 7f bf be d5 55 cd bd
       -0.2134267 -0.2187346 -0.3740229 -0.10026137
0001a0 d2 a5 6b be c6 87 74 bf 5a 61 03 be 42 49 90 bd
       -0.23012474 -0.95519674 -0.12830105 -0.07045223
0001b0 02 61 7f be e2 b3 20 bf 1f cf 0c 3e 50 06 21 be
       -0.2493935 -0.6277448 0.13750885 -0.15725064
0001c0 93 9f 3a bf f3 88 f2 bd 9f 8e 41 bf e9 84 75 be
       -0.7289974 -0.11842527 -0.7560825 -0.23976482
0001d0 5e 09 1d 3f 05 86 ff 3e bc f1 ba be 57 15 6b 3e
       0.6134242 0.49906936 -0.36512554 0.22957359
0001e0 4f b1 28 3e 25 ec fd be 25 39 89 be 7a df c4 3d
       0.16473888 -0.49594226 -0.2680141 0.09612937
0001f0 5c cd 18 bf 73 71 7a be b5 2d 1c bf 01 cd 06 bf
       -0.59688354 -0.2445734 -0.61007243 -0.5265656

fc3.weight f4 [2, 128]
000000 5b af e2 3d ac d8 ba bf 49 cb aa 3d 65 26 98 be
       0.11068603 -1.4597373 0.08339555 -0.29716793
000010 ee 51 98 be 26 2f 12 3e ed 7d 75 bf 6c 58 16 bf
       -0.29750007 0.14275798 -0.9589527 -0.5872867
000020 79 f8 87 3d 09 fe dc 3d 3b cd 26 3e 9b 4a ef 3d
       0.06639189 0.10790641 0.16289227 0.11684152
000030 56 59 87 be e5 fa 0b bf e9 0f af bd 2a 6e 96 bd
       -0.26435345 -0.5467971 -0.085479565 -0.07345231
000040 9b 2c 39 bf d0 a7 dd 3a d4 f5 26 c0 8f f8 db 3d
       -0.7233369 0.0016910974 -2.6087542 0.10740768
000050 1e a7 cd 3c 66 94 96 be d6 d8 02 bd 44 50 69 3d
       0.025104102 -0.29410094 -0.031945072 0.056961313
000060 39 36 16 3f 38 12 5b bd 41 ba 01 bf cc fd 03 3d
       0.5867649 -0.05348417 -0.50674826 0.03222446
000070 7a fb 34 3e 3d 79 a1 3e bf ff cd 3c e4 ce e0 3c
       0.17674056 0.3153781 0.025146363 0.027442403
000080 1e ae 5c bd 3c e4 9c 3e 4c 35 56 3d 14 7e 72 bc
       -0.05387699 0.3064288 0.05229692 -0.014800567
000090 3e 57 3f bd 41 5a 13 bf 26 c9 99 3c 85 e5 a6 3c
       -0.04671406 -0.5755959 0.018772673 0.020373115
0000a0 e8 cd ab 3d d8 01 e6 3d ad 73 9b 3c a9 92 d0 bd
       0.08388883 0.112308204 0.018976057 -0.10184223
0000b0 77 0b be bd ef 99 96 3e e2 51 32 3d 32 0d 64 3d
       -0.092795305 0.29414317 0.04353512 0.055676647
0000c0 c8 28 0d 3f 55 9d 8b bd a3 f7 32 3c 7b 1e 49 3d
       0.5514035 -0.06817118 0.010923299 0.049101334
0000d0 3d 44 81 bd 7d e3 9f be 15 4a 94 3e 48 e2 f2 be
       -0.063118435 -0.31228247 0.2896277 -0.47438264
0000e0 27 10 69 3f fb 73 bd 3f a1 f5 32 bc 85 4b 70 3c
       0.9104027 1.480102 -0.01092282 0.014666443
0000f0 1c 54 fe bd 68 a5 e8 bc e7 75 76 bd e4 39 8f 3d
       -0.12418386 -0.028399184 -0.060171034 0.06993464
000100 9b 5a 88 be d4 1c 29 bd fc 50 97 be 97 ff 3e be
       -0.26631626 -0.04128726 -0.29553974 -0.18652187
000110 ea f1 fd 3c f3 8c 06 39 75 aa 6e bf 38 ff 01 3f
       0.030999143 0.00012831744 -0.93228847 0.5078006
000120 03 1b 99 3d b3 21 44 be b9 fd 67 3d dd 8f ea 3c
       0.07475855 -0.1915348 0.056638453 0.028633052
000130 d1 f3 44 bd 0d 79 34 bd 72 a9 59 3d 72 c0 78 be
       -0.048084084 -0.044060756 0.05314011 -0.24292162
000140 50 05 e3 bb b8 eb 27 bf 41 42 30 bd 84 d9 d1 bb
       -0.0069281235 -0.65594053 -0.043031935 -0.0064041037
000150 10 3f fe bd b6 54 a8 3d 31 1a 96 bb 3c 76 38 be
       -0.12414372 0.08219282 -0.004580759 -0.18013853
000160 09 3a 22 bf 45 73 02 3f 14 2d a3 3d 55 5b aa 3d
       -0.63369805 0.5095714 0.07967582 0.083182015
000170 ba 3c 05 bc 91 8a 6c 3d 7b 59 39 3d 3a 73 6e bf
       -0.008132154 0.057749335 0.04525135 -0.9314457
000180 b3 7a 3c 3d 8e ee c8 be 17 24 c2 3b cb 0c 97 be
       0.046015453 -0.39244503 0.0059247124 -0.29501948
000190 cc f7 90 3e 91 35 0c bd 05 b8 38 bf 15 fa ff 3c
       0.28314054 -0.034230772 -0.7215579 0.031247178
0001a0 9b 5d 82 bd 09 12 5a bc ee 9a 66 3d 7a 76 c1 bc
       -0.0636551 -0.013309964 0.056300096 -0.023616064
0001b0 39 00 ac be cc 22 59 3e f4 44 3d 3d da 0a 83 3e
       -0.3359392 0.2120468 0.046208337 0.25594217
0001c0 14 46 2b 3e 50 b7 aa 3c 4b d0 27 3c 21 70 82 bb
       0.16725951 0.020839363 0.010242532 -0.003980652
0001d0 dd 16 20 3d 22 b6 fc 3c 89 02 13 3d 7e e5 cd 3d
       0.039084304 0.030848566 0.03589109 0.10053538
0001e0 e2 2c 82 be 07 f2 46 3e 9e 6a 0b 3e 7f 2e 33 bd
       -0.25424868 0.19428264 0.1361489 -0.043745514
0001f0 b0 35 23 bc d1 b1 ca bc 8d d8 4e 3e 26 9f dc be
       -0.009961531 -0.024742993 0.20199795 -0.4309017
000200 0b e4 81 bc f1 7b 0c c0 92 2a af bf 36 d2 d0 3f
       -0.01585581 -2.1950648 -1.3684866 1.6314151
000210 76 f8 6c 3e 86 f6 34 bf 32 41 f3 3e a0 2b 7e be
       0.23141655 -0.70688665 0.47510678 -0.24821329
000220 e4 13 3d be 9a ca c9 be 44 96 93 bd 85 44 ca 3f
       -0.18464619 -0.39412385 -0.07206395 1.580216
000230 c6 04 1e 3e 07 be 70 bd 25 92 9e ba af 02 14 3f
       0.15431508 -0.058774974 -0.0012097998 0.57816595
000240 5d 45 4b 3f c4 82 b6 3c 83 9c 96 bf 27 47 c0 bb
       0.79402715 0.02227915 -1.1766514 -0.005867857
000250 bc a7 0a 3e 77 47 9b bf 82 ee 4d bf 78 a4 52 3d
       0.13540548 -1.2131184 -0.8044206 0.05142638
000260 f8 f9 3e be 96 e6 1d bd 15 9a a1 3f 46 36 52 bf
       -0.18650043 -0.038549982 1.2625147 -0.82114065
000270 c9 c7 14 3d 17 39 97 bc ee 54 bd bc 32 03 11 3f
       0.036323342 -0.01845984 -0.023111787 0.566455
000280 e0 5b 04 bd 42 86 82 bc 8b 78 a2 bd a4 aa 27 3e
       -0.03231418 -0.01593316 -0.07933148 0.16373688
000290 18 16 d3 3d a3 13 5d 3d 1d 0c 00 3e a4 f0 b1 3f
       0.103069484 0.053973805 0.12504621 1.3901563
0002a0 1b 2d 8d ba 03 e1 b1 be 8d 9c 65 3d da 6b 33 bc
       -0.0010770889 -0.34741983 0.0560575 -0.010951007
0002b0 2b e4 c1 3d e3 46 b0 3e 70 14 09 3f d5 06 a2 be
       0.09467348 0.34429082 0.5354681 -0.31645837
0002c0 20 82 10 3f 9e 03 86 3d d1 9d d1 3e 6e b1 bd 3e
       0.56448555 0.06543659 0.40940717 0.3704943
0002d0 c5 1c f2 bb 25 d1 fa be 94 56 aa bf f1 9e 87 bf
       -0.0073886835 -0.4898769 -1.3307672 -1.059538
0002e0 6b 6e 0b bc 92 cd 5e 3d 96 46 a3 bd 54 31 4f 3f
       -0.008510212 0.054395266 -0.079724476 0.80934644
0002f0 72 0c 95 be 87 5e 4a 3c ff 4c fd 3e 88 df 2e 3e
       -0.29111058 0.012351639 0.49472806 0.17077458
000300 53 ca 14 bf 1f e5 35 bf 6f 62 37 3f 65 76 ad be
       -0.5812122 -0.71052736 0.7163457 -0.3387939
000310 a4 06 33 3e a2 3a 2d bc eb 56 88 bf f8 7d 05 be
       0.17483002 -0.010573061 -1.0651525 -0.13036335
000320 94 ec 1d bf 29 25 d2 be b6 dc 9f bf 07 86 0e bf
       -0.61689115 -0.41043976 -1.2489231 -0.5567326
000330 6d 40 70 bd 18 99 12 3d 46 d4 54 bf e2 e0 20 bf
       -0.05865519 0.035790533 -0.83136404 -0.62843144
000340 14 37 7d bb d8 f9 82 bf 08 7e 1f be 69 65 9d bf
       -0.0038637565 -1.0232496 -0.15575421 -1.2296573
000350 78 7e 05 bd 55 0e 02 39 7e af dc bc 9c 49 17 be
       -0.032591313 0.00012403105 -0.02693915 -0.14774173
000360 d4 97 0c 3f b2 ef bf be d1 61 d7 be da 7d 1a 3e
       0.5491917 -0.3748756 -0.42066815 0.15087071
000370 95 97 60 bc 1a a7 c4 bf f8 1b 24 3f 3a c0 c6 bd
       -0.013708015 -1.5363495 0.64105177 -0.09704633
000380 98 8b 5c bf 7a 7f 90 3d 35 aa ea 3e 1a b9 13 bd
       -0.86150503 0.07055564 0.45832983 -0.0360652
000390 7d e5 1b 40 9b 83 b7 bf 03 87 4d 3f fa ff 40 bf
       2.4358819 -1.4337038 0.80284137 -0.7539059
0003a0 03 d2 00 bf 2e 46 7d 3f 9e 05 bc bd 64 93 30 bc
       -0.5032045 0.9893521 -0.09180759 -0.010777328
0003b0 18 4e 6f 3e 27 46 dc 3e df 8d 91 3f 39 3a e7 3e
       0.23369634 0.43022272 1.1371421 0.45161608
0003c0 d4 67 60 3f 7a 71 08 3a a9 6f 3f 3f 80 2f 5f bf
       0.8765843 0.00052048976 0.74779755 -0.87181854
0003d0 b9 bb 92 bf 43 82 b1 bd d1 eb b5 3d 5e 4d e7 bd
       -1.1463538 -0.086674236 0.08882869 -0.112940535
0003e0 a5 2a ba 3f 31 a4 29 bf fb 85 81 3e 8b 37 18 bf
       1.4544264 -0.6626616 0.2529753 -0.5945975
0003f0 7b bd 8c bf 95 a7 64 bd e9 f8 93 3b fe 4c c8 bf
       -1.0995325 -0.05582388 0.0045157564 -1.5648496

fc3.bias f4 [2]
000000 c1 2e 06 3e 31 04 38 bf
       0.13103773 -0.71881396
