checkpoint_critic.pth (torch, 82731 bytes, 5 tensors)

fcs1.weight f4 [128, 24]
0	0xbd3bfdc4	-0.045896307
1	0xbdcee06b	-0.10101398
2	0x3c9a8a2d	0.018864715
3	0x3d925a69	0.071461506
4	0xbd83d6ea	-0.06437476
5	0xbb6e1633	-0.003632915
6	0x3cc8f46f	0.024530618
7	0xbd86d04b	-0.065826975
8	0xbd4d141b	-0.050068002
9	0x3d94cc7c	0.07265565
10	0xbcb1db6e	-0.021711078
11	0x3d33cdfa	0.043897606
12	0xbd0792c1	-0.03309894
13	0x3d071d29	0.032986794
14	0x3cbd27ec	0.023090325
15	0xbdcbf791	-0.09959329
16	0x3da140d2	0.078736916
17	0x3d796110	0.06088358
18	0xbd391dd6	-0.04519447
19	0x3d2bb5c9	0.04192141
20	0x3e18d194	0.14923698
21	0xbcef1361	-0.029184045
22	0x3d3bfe3e	0.04589676
23	0xbd67f9a1	-0.05663455
24	0x3d2b2e06	0.04179194
25	0x3d934874	0.07191554
26	0xbcf6a264	-0.03010673
27	0xbd216f42	-0.039412744
28	0xbb735596	-0.003712987
29	0xbdaeb609	-0.08530814
30	0xbb94a99a	-0.0045368196
31	0xbd476672	-0.048681684
32	0xbbd1a24b	-0.0063975207
33	0xbbb16557	-0.005413692
34	0x3caa2d48	0.020773545
35	0x3c2cbeaa	0.010543505
36	0x3a02ce0f	0.00049898116
37	0x3cd3ed3d	0.02586996
38	0xbcb2bc08	-0.021818176
39	0x3b2e0487	0.0026552991
40	0xbcbf4101	-0.023346426
41	0x3b153399	0.002276635
42	0x3c8ea03f	0.017410396
43	0x3d60af3a	0.05485461
44	0xbc91ff0d	-0.017821813
45	0x3e014175	0.12622626
46	0xbd44dfa1	-0.04806483
47	0xbd0037ec	-0.03130333
48	0x3da08fe7	0.07839947
49	0x3d2c3432	0.042041965
50	0x3d91a810	0.071121335
51	0xbd67d16d	-0.05659621
52	0xbdd8ab29	-0.10579521
53	0xbd9ca104	-0.07647899
54	0xbd98763a	-0.07444425
55	0x3d1539b9	0.036432
56	0xbcbaa1d4	-0.022782244
57	0x3d5faac7	0.054606225
58	0x3c3badf8	0.011455052
59	0x3d5178c9	0.05114058
60	0xbde17368	-0.1100834
61	0x3c45d792	0.012075322
62	0x3cda3075	0.026634434
63	0xbd806036	-0.06268351
64	0xbc169f17	-0.009193203
65	0x3cdf3fcc	0.0272521
66	0x3cb88419	0.022523927
67	0x3dafaa5b	0.085774146
68	0x3dbdda6b	0.092701755
69	0x3b89d3fa	0.004206178
70	0xbd070f1d	-0.032973398
71	0xbd036210	-0.03207594
72	0x3c1764dd	0.009240356
73	0xbd6cee2d	-0.05784433
74	0x3d82487b	0.06361481
75	0x3c349327	0.011021412
76	0x3c0bd12c	0.008533757
77	0xbe0e9190	-0.13922715
78	0xbd1912e2	-0.037371524
79	0x3d074548	0.033025056
80	0xb9f2af06	-0.0004628824
81	0xbcd416fa	-0.025889862
82	0x3d9e1b98	0.07720107
83	0xbd6a75dd	-0.05724131
84	0x3c952371	0.018205376
85	0x3cd942f1	0.026521178
86	0xbd5dd8ae	-0.05416172
87	0x3b9e26c4	0.0048263986
88	0xbd743b4e	-0.05962687
89	0xbc4609f1	-0.012087331
90	0x3d11a956	0.035561882
91	0x3d638809	0.055549655
92	0xbda07dc2	-0.078364864
93	0x3e42288a	0.18960777
94	0xbc83ede5	-0.016104648
95	0xbde9508c	-0.11392316
96	0x3d2b1950	0.041772187
97	0x3ce73660	0.02822417
98	0xbd3bcb7a	-0.045848347
99	0xbdac6abd	-0.08418796
100	0x3c7ede19	0.015555882
101	0xbcd350ec	-0.025795422
102	0xbc162442	-0.009163918
103	0x3cd21ca1	0.025648417
104	0xbd14a89c	-0.03629361
105	0xbd13f802	-0.03612519
106	0x3c2b0b99	0.010439777
107	0x3c7e1115	0.015507002
108	0xbd914028	-0.07092315
109	0xbc91742b	-0.017755589
110	0xbd500276	-0.050783597
111	0xbccab2d2	-0.024743471
112	0x3c321159	0.010868394
113	0xbc516556	-0.012780508
114	0x3d83e787	0.06440645
115	0x3c884e4b	0.016638895
116	0x3dffe79b	0.12495347
117	0xbcf61b84	-0.030042417
118	0x3bba868e	0.0056923097
119	0x3d220b07	0.039561298
120	0xbc0b3b90	-0.0084980875
121	0x3dc04371	0.093878634
122	0xbcda10c0	-0.026619315
123	0xbbebdc88	-0.0071979202
124	0xbd251ec4	-0.040312544
125	0xbd488c92	-0.048962183
126	0x3c94d7a0	0.018169224
127	0x3b133a38	0.002246512
128	0xbc1d7fe1	-0.009613008
129	0x3d937771	0.07200516
130	0x3b3519b1	0.0027633721
131	0x3c6cec37	0.014460615
132	0xbd048f86	-0.032363437
133	0x3c7ff7c0	0.015623033
134	0x3d0382ac	0.03210704
135	0x3d64c7f3	0.05585475
136	0x3cc52470	0.024065226
137	0x3d9a7215	0.07541291
138	0x3da21427	0.07914
139	0xbaa6e6b9	-0.0012733556
140	0x3c2e9445	0.010655467
141	0xbbd4c271	-0.006492906
142	0xbd81bafa	-0.06334491
143	0xbcedb2c5	-0.029015908
144	0xbd18390d	-0.037163783
145	0x3d9f27a2	0.07771231
146	0x3c9d5a97	0.019208236
147	0x3c79ee1b	0.015254523
148	0x3d8bfb6f	0.068350665
149	0x3c037311	0.008023039
150	0xbd58da5c	-0.05294262
151	0xbc6fb68b	-0.014630924
152	0xbba3dfb7	-0.005001034
153	0x3d135464	0.035969153
154	0x3d5b3b25	0.0535232
155	0xbd145f8a	-0.036223926
156	0xbd8f5579	-0.069987245
157	0xbd8e43d8	-0.06946534
158	0xbd9cdcf3	-0.0765933
159	0x3dbbe4ad	0.09174476
160	0xbd231e5b	-0.03982387
161	0x3c027d31	0.007964418
162	0xbc41209c	-0.01178756
163	0x3d9b20c6	0.075746104
164	0xbcb38679	-0.021914707
165	0xbea9a967	-0.33137056
166	0x3d112d9b	0.035443883
167	0xbafceddb	-0.0019296961
168	0x3d752ef0	0.059859216
169	0xbc74faad	-0.014952344
170	0xbd2c96c3	-0.042135965
171	0xbcccc360	-0.024995506
172	0x3d871f2f	0.06597745
173	0xbd5fb54a	-0.05461625
174	0x3d3f0031	0.046631042
175	0xbc84d150	-0.01621309
176	0xbc94bc7b	-0.01815628
177	0x3da1499c	0.07875368
178	0x3cb73a5e	0.022366699
179	0xbd37d6f3	-0.044882726
180	0xbde84457	-0.1134116
181	0x3dc465e6	0.09589748
182	0x3cee38fe	0.02907991
183	0x3d1b06ed	0.0378484
184	0x3ddb2267	0.10699921
185	0x3d7164ca	0.05893401
186	0xbbdaa417	-0.006672393
187	0x3d8baf6b	0.06820568
188	0x3cb35532	0.02189121
189	0x3e1a4cc1	0.15068342
190	0x3c88ac38	0.016683683
191	0xbd80bc42	-0.06285907
192	0x3a7516c9	0.00093494036
193	0xbcba9dd6	-0.02278034
194	0xbd3a7391	-0.04552037
195	0xbc80b87c	-0.015712969
196	0x3d3cf483	0.046131622
197	0xbd7bf470	-0.06151241
198	0x3cb29d12	0.021803413
199	0xbc74ba11	-0.01493694
200	0x3bf24c6d	0.0073943646
201	0xbc96ba9c	-0.01839953
202	0x3d391128	0.045182377
203	0xbc928ecb	-0.017890355
204	0xbc94079f	-0.01807004
205	0x3d115def	0.035489973
206	0xbd566a52	-0.05234749
207	0xbd4bc8eb	-0.049752157
208	0xbd5cc765	-0.053901095
209	0x3d964f0e	0.07339297
210	0x3c30d57d	0.010793087
211	0xbd2ea08b	-0.042633574
212	0xbd927c66	-0.07152633
213	0xbbf72ee0	-0.0075434297
214	0xbd38147a	-0.044941403
215	0xbcbb44f2	-0.022860024
216	0x3d365e4e	0.04452353
217	0xbd00025c	-0.03125225
218	0xbd296785	-0.04135849
219	0x3d385680	0.045004368
220	0xbc33ada9	-0.010966697
221	0x3dfbfdbe	0.12304257
222	0x3d3098ed	0.04311459
223	0xbd2f4b4e	-0.042796426
224	0x3d9cd524	0.07657841
225	0xbda082df	-0.07837462
226	0x3c47dfab	0.012199323
227	0x3d591584	0.052999035
228	0x3cb5aa84	0.022176035
229	0x3de63f20	0.11242509
230	0x3c5fe1ff	0.0136647215
231	0xbc395830	-0.011312529
232	0x3d6fedb3	0.058576297
233	0x3d9e13e8	0.077186406
234	0xbd3ba9d3	-0.045816254
235	0xbd1357c3	-0.035972368
236	0xbc00b388	-0.007855304
237	0x3e40ee93	0.18841009
238	0x3cdb9cca	0.026808161
239	0x3df36ebd	0.11886356
240	0x3c9079fa	0.017636288
241	0x3d071500	0.03297901
242	0xbca27fa7	-0.01983626
243	0x3d2089bc	0.039193854
244	0xbd3c502f	-0.045974907
245	0x3c7455ba	0.014913017
246	0xbd7b45f2	-0.061346002
247	0xbd20e12e	-0.039277248
248	0x3d321032	0.043472476
249	0xbd8ed16d	-0.069735385
250	0x3d99fab7	0.07518523
251	0xbd91ab53	-0.071127556
252	0x3df4ba73	0.11949625
253	0xbd96b798	-0.073592365
254	0xbdacba2b	-0.08433946
255	0x3d652fc1	0.055953745

fcs1.bias f4 [128]
0	0xbdc07d54	-0.093989044
1	0x3ccba7f1	0.024860354
2	0xbe24e908	-0.1610452
3	0xbe2f4201	-0.17115022
4	0xbd0db5b2	-0.034597106
5	0x3d8e3af5	0.06944839
6	0x3d79990f	0.060936984
7	0xbe097ff8	-0.13427722
8	0xbd3a38a0	-0.045464158
9	0xbdb02256	-0.08600299
10	0xbda44945	-0.080217876
11	0xbd89ca67	-0.06728058
12	0x3e1c803b	0.15283291
13	0x3e16af93	0.14715414
14	0x3e461082	0.19342235
15	0x3e09717f	0.13422202
16	0x3e093ef2	0.13402918
17	0x3cb4f384	0.022088774
18	0x3d589ed2	0.052885838
19	0xbd4302f2	-0.04761023
20	0xbd5cd28f	-0.05391174
21	0xbe0e40e6	-0.13891944
22	0x3d3fa5a9	0.046788845
23	0x3db65d71	0.08904541
24	0xbe2372ba	-0.15961733
25	0xbe6e16b4	-0.23250848
26	0x3e369b0f	0.17832588
27	0x3e1bd0ee	0.15216419
28	0xbe13f5ef	-0.14449285
29	0xbe42e402	-0.1903229
30	0xbdd0d18f	-0.1019622
31	0xbe121edf	-0.14269589
32	0xbb9f81d8	-0.0048677735
33	0xbd92f8f1	-0.07176388
34	0x3bf4ff1c	0.0074767005
35	0xbd25d5f4	-0.040487245
36	0x3d84af5c	0.0647876
37	0xbdb0102d	-0.08596835
38	0xbb55a1c4	-0.003259764
39	0xbd6a6bf6	-0.057231866
40	0xbb7cb698	-0.0038560983
41	0xbd34ddb8	-0.04415676
42	0x3e236cc1	0.15959455
43	0xbe286420	-0.16444445
44	0x3d91273d	0.07087562
45	0xbd3208b9	-0.04346535
46	0x3dd6b8d1	0.1048447
47	0xbdc30a7a	-0.095234826
48	0xbd73c547	-0.05951431
49	0xbc885b9c	-0.016645245
50	0x3e13da0e	0.1443865
51	0x3cea88a6	0.028629612
52	0x3d76c643	0.06024767
53	0xbc96a3e7	-0.018388702
54	0x3e1cf6be	0.153285
55	0xbe1c18bd	-0.15243812
56	0x3a1417a4	0.00056492747
57	0x3db65846	0.089035556
58	0x3e57d778	0.21078289
59	0xbd461adc	-0.04836546
60	0xbd896309	-0.067083426
61	0x3dd39c81	0.10332585
62	0x3e2b2415	0.16712983
63	0xbe86475a	-0.26226312
64	0xbe544161	-0.20728065
65	0xbd3b45fa	-0.04572103
66	0xbe37c855	-0.17947514
67	0xbde791ca	-0.11307104
68	0xbe50cfb4	-0.20391732
69	0x3d579810	0.052635252
70	0xbe034712	-0.1282008
71	0x3e71b281	0.2360325
72	0x3e61bc25	0.22044428
73	0xbe1b01fb	-0.15137474
74	0xbc8f56a9	-0.017497377
75	0x3e93b855	0.28851572
76	0x3e3f0e86	0.18657884
77	0xbd05c570	-0.032658994
78	0x3e012db9	0.12615098
79	0x3d2d976d	0.04238074
80	0x3e70b0bc	0.23504919
81	0xbdb22e3c	-0.08700225
82	0xbcb8298e	-0.022480752
83	0xbe2c7552	-0.16841629
84	0xbd0ebec4	-0.034849897
85	0x3d960e90	0.07326996
86	0xbdfa3115	-0.12216393
87	0xbddd1de0	-0.10796714
88	0x3e5b1e98	0.2139839
89	0xbe092444	-0.1339274
90	0xbbdc80d7	-0.006729226
91	0xbdbadb10	-0.09123814
92	0xbdc4851b	-0.095957
93	0xbe39e8a6	-0.18155155
94	0xbe07a25f	-0.13245533
95	0xbcf938c1	-0.03042257
96	0x3e1b1534	0.15144807
97	0x3e11e000	0.14245605
98	0xbbf258f5	-0.0073958584
99	0xbe0e971d	-0.13924833
100	0xbe6cad37	-0.23112951
101	0xbd858215	-0.06518952
102	0xbe04fe1e	-0.12987563
103	0xbdc31a25	-0.09526471
104	0xbdb3fcf5	-0.08788482
105	0x3e28a167	0.1646782
106	0xbe030946	-0.12796506
107	0xbe42a46e	-0.19008037
108	0xbdcb6d0b	-0.09932908
109	0x3e48f0de	0.19623134
110	0xbc112d1a	-0.008860851
111	0x3bea26ee	0.007145754
112	0x3e355797	0.17709194
113	0x3d77149c	0.06032239
114	0x3e5e9620	0.21736956
115	0xbe10e9db	-0.14151709
116	0x3e30d0b0	0.17267108
117	0xbe77062a	-0.24123445
118	0xbe03a19f	-0.12854622
119	0x3c90f6d0	0.017695814
120	0x3dbfa73a	0.09358068
121	0xbd62544e	-0.05525618
122	0x3e639c81	0.2222767
123	0xbde3f146	-0.11130004
124	0xbd7db04c	-0.061935708
125	0xbd9695ec	-0.07352814
126	0xbd36f171	-0.04466385
127	0x3d37e431	0.044895355

fc2.weight f4 [128, 130]
0	0xbc709bd5	-0.014685591
1	0xbdd3a4e3	-0.10334184
2	0x3d3a82f9	0.04553506
3	0xbc0cae87	-0.008586532
4	0x3d7ad8de	0.061241977
5	0x3bdaa6af	0.0066727023
6	0x3983df97	0.00025152855
7	0xbcb6160c	-0.02222731
8	0xbd3afe70	-0.045652807
9	0xbd78652e	-0.060643367
10	0xbc925087	-0.017860664
11	0x3d90cc45	0.07070211
12	0xbd8e7476	-0.06955807
13	0x3d1dffba	0.038573958
14	0xbda3fdc3	-0.080073856
15	0xbdb06e2f	-0.08614766
16	0x3d0e102e	0.0346834
17	0xbd990485	-0.07471565
18	0x3dc34c2e	0.095360145
19	0xbd47cf39	-0.048781607
20	0x3d37e594	0.044896677
21	0xbd863d0c	-0.065546125
22	0x3c26d026	0.010181462
23	0xbd95ed24	-0.073206216
24	0xbca9761b	-0.0206862
25	0xbd82f347	-0.06394058
26	0x3cf303dd	0.029664928
27	0xbdc64817	-0.09681719
28	0xbd83a501	-0.06427956
29	0x3b855318	0.0040687434
30	0x3c070060	0.0082398355
31	0x3d8ea7de	0.06965612
32	0xbd2df92d	-0.04247396
33	0xbdce2225	-0.10065106
34	0xbc0ec8a1	-0.008714826
35	0xbdd12616	-0.102123424
36	0x3cc30977	0.023808224
37	0xbd4260bb	-0.04745553
38	0xbd6484ba	-0.05579064
39	0x3d003140	0.03129697
40	0xbd9bc3d3	-0.0760571
41	0x3d9d9bda	0.07695742
42	0xbd9d57ac	-0.07682738
43	0x3c7cf221	0.015438587
44	0x3d1a2cba	0.03764031
45	0x3db9bda3	0.090693735
46	0xbcb04aca	-0.021520037
47	0xbd56e8bb	-0.052468043
48	0xbcb5501c	-0.022132926
49	0x3cfc7edb	0.030822208
50	0xbd50c57f	-0.050969597
51	0x3cde4c8c	0.02713611
52	0xbd546c16	-0.05186089
53	0x3dacceca	0.084378794
54	0xbd65c294	-0.056093767
55	0xbce96e2b	-0.028494915
56	0x3d0c9e1c	0.034330472
57	0xbc05b89b	-0.008161689
58	0x3ca2f044	0.019889958
59	0xbd3bb465	-0.045826335
60	0xbd2a2c87	-0.04154637
61	0xbd54d8ee	-0.051964693
62	0x3cd834d3	0.026392376
63	0xbcba468d	-0.02273872
64	0x3ce61d60	0.028090179
65	0x3db2ae42	0.08724643
66	0x3d44df6d	0.048064638
67	0x3d7197c5	0.05898263
68	0xbd589af7	-0.05288216
69	0xbcfd6ce9	-0.030935721
70	0x3d1c21dd	0.038118232
71	0xbd86c78e	-0.06581031
72	0xbd08e220	-0.033418775
73	0xbc2ccd88	-0.010547049
74	0x3d84ae9b	0.06478616
75	0x3e017448	0.12642014
76	0xbd868678	-0.06568617
77	0xbcbb2d29	-0.022848682
78	0xbb4a2163	-0.0030842654
79	0x3d4844e2	0.048893817
80	0xbce9b616	-0.028529208
81	0x3d45b362	0.048266776
82	0xbcab126c	-0.020882808
83	0x3d01c499	0.03168163
84	0x3d88a028	0.066711724
85	0x3b09759c	0.0020974642
86	0x3cf3f678	0.029780611
87	0x3d8aff95	0.0678703
88	0xbdb2b635	-0.087261595
89	0x3d1e3ed6	0.038634144
90	0x3d3fb8bd	0.04680704
91	0x3c2fb958	0.010725342
92	0x3d03367e	0.03203439
93	0xbc90d2b7	-0.017678602
94	0xbd7024e2	-0.058628924
95	0x3d3aa73d	0.045569647
96	0xbd23febe	-0.040037863
97	0xbd9aa21d	-0.07550452
98	0xbcfd2415	-0.030900994
99	0xbc2285c9	-0.009919592
100	0xbc104138	-0.008804612
101	0x3c3c5a07	0.011496074
102	0xbcc06e6d	-0.023490155
103	0x3dc04f6c	0.093901485
104	0xbd9f5370	-0.07779586
105	0x3d162bf5	0.036663014
106	0xb7ed70cf	-2.8305132e-05
107	0xbd75ad8c	-0.05997996
108	0xbc99a39e	-0.018754777
109	0xbddef89c	-0.10887262
110	0x3dd36761	0.10322452
111	0xbd09e659	-0.033666942
112	0xb8371978	-4.365432e-05
113	0x3d369020	0.044571042
114	0x3d6082ea	0.05481235
115	0xbc70c2b4	-0.014694858
116	0xbc143d64	-0.00904784
117	0x3d9c2edf	0.076261275
118	0xbbe7e55e	-0.0070769032
119	0x3c75441b	0.014969851
120	0xbc722f15	-0.014781733
121	0xbb663c07	-0.0035130994
122	0xbd3ba525	-0.04581179
123	0x3dc1cee0	0.094632864
124	0xbc3b813b	-0.011444385
125	0x3c9d36a6	0.019191097
126	0xbc9327ac	-0.017963253
127	0xbda63804	-0.08116153
128	0xbd6fafa5	-0.058517117
129	0xbd392862	-0.045204528
130	0xbddbb65a	-0.1072814
131	0x3d0bfa69	0.034174357
132	0xbbadb292	-0.0053008283
133	0xbca67451	-0.020319136
134	0x3d41b621	0.047292832
135	0x3ca35465	0.019937703
136	0xbdcfa84e	-0.101395234
137	0xbdbcab84	-0.092124015
138	0xbc361fe2	-0.011116
139	0xbd38d1f5	-0.045122106
140	0xbd2cccd6	-0.042187534
141	0x3b43c9d6	0.0029874942
142	0x3ab7bae1	0.0014017486
143	0x3dcdb3ce	0.10044061
144	0x3c90bba5	0.0176676
145	0xbd26319c	-0.040574655
146	0xbdedff01	-0.11620904
147	0xbdcfb80f	-0.10142528
148	0xbe278b09	-0.16361631
149	0xbdce5fa3	-0.10076835
150	0xbe26d863	-0.16293482
151	0x3d6f4d24	0.058423176
152	0xbd21d131	-0.03950614
153	0xbcfe40a4	-0.031036682
154	0x3d39fcb7	0.045407023
155	0x3cf85622	0.030314509
156	0x3ce0a78e	0.027423646
157	0x3da4bdaa	0.08043988
158	0x3dea53f8	0.11441797
159	0x3db9d7e1	0.09074379
160	0x3d739ede	0.05947768
161	0x3d8ffa43	0.070301555
162	0xbc6e3f15	-0.014541407
163	0xbe58c3f1	-0.21168496
164	0xbd1fb1b5	-0.038987834
165	0x3d8befdf	0.06832861
166	0xbb40effa	-0.0029439912
167	0xb91cc1e3	-0.00014949548
168	0xbd5bec0c	-0.05369191
169	0xbe48c00e	-0.19604513
170	0xbdd76f88	-0.1051932
171	0xbc81cd60	-0.015845
172	0x3dadc338	0.08484501
173	0x3d64a564	0.05582179
174	0x3da44134	0.08020249
175	0xbdb9c88c	-0.090714544
176	0xbce3c0ab	-0.027801832
177	0xbd36dc05	-0.04464342
178	0x3cb1c090	0.021698266
179	0xbd69edcb	-0.057111543
180	0xbc584790	-0.013200656
181	0xbdd7860f	-0.105236165
182	0x3d6872fd	0.056750286
183	0xbdbb14c4	-0.0913482
184	0xbdf56583	-0.119822524
185	0xbcdf29b0	-0.027241558
186	0x3cadfdff	0.021239279
187	0x3d16897b	0.036752205
188	0x3d796bf6	0.060893975
189	0x3d08845c	0.033329353
190	0x3db37952	0.087633744
191	0x3ce963d1	0.028489979
192	0xbcad2a8a	-0.021138448
193	0x3ca8d26f	0.020608155
194	0x3d862c91	0.06551469
195	0xbd3be3ca	-0.045871533
196	0x3cda8b71	0.026677819
197	0x3ca6b8cc	0.02035179
198	0xbd6aa386	-0.057284854
199	0xbc5027a5	-0.0127047645
200	0xbdd6b321	-0.10483385
201	0xbd15333f	-0.036425825
202	0xbe352e26	-0.17693385
203	0x3cbcf671	0.023066731
204	0xbcae9d75	-0.021315316
205	0xbdf7f6a6	-0.12107591
206	0xbc41880f	-0.011812224
207	0x3d36e82e	0.044655018
208	0xbc5f15f2	-0.013616072
209	0xbc9f58d9	-0.019451546
210	0xbd53e885	-0.05173542
211	0xbd584cff	-0.052807804
212	0x3ccd2ecc	0.025046729
213	0x3cd28735	0.025699237
214	0x3c51fc8e	0.012816561
215	0xbe8e0db1	-0.2774482
216	0xbd8b0057	-0.06787174
217	0xbcd31cfc	-0.025770657
218	0x3e5190cc	0.20465392
219	0x3d5bfdf6	0.053708993
220	0x3d8ea4d5	0.06965033
221	0xbd5d6947	-0.05405548
222	0xbc850067	-0.016235543
223	0xbd45a366	-0.048251532
224	0x3b9d5692	0.0048015798
225	0x3d6aabe1	0.057292823
226	0x3d4e9ea9	0.05044428
227	0xbd145b5a	-0.036219932
228	0xbd9f5d17	-0.07781427
229	0xbd99c826	-0.075088784
230	0x3db9cffd	0.09072874
231	0x3ca512b5	0.020150522
232	0xbc6070ca	-0.013698766
233	0x3c104d0c	0.008807432
234	0x3dbf0da9	0.09328777
235	0xbda5067d	-0.08057878
236	0xbdb03220	-0.086033106
237	0x3d78d2aa	0.06074778
238	0x3b8e0016	0.0043335063
239	0x3c71164f	0.014714791
240	0xbb144d31	-0.0022629017
241	0x3d8bf467	0.068337254
242	0xbcd16d69	-0.025564866
243	0xbd63f8b6	-0.05565711
244	0xbd0e37a3	-0.034721028
245	0xbb7f5032	-0.0038957712
246	0x3be958d5	0.0071211853
247	0xbd9c9262	-0.07645108
248	0x3d985705	0.07438473
249	0xbdaf5b22	-0.08562304
250	0xbac43dba	-0.0014972009
251	0xbd678684	-0.05652477
252	0xbdc23545	-0.094828166
253	0xbd6312c9	-0.055437837
254	0x3bc48d93	0.0059983223
255	0x3c8ebc34	0.017423727

fc2.bias f4 [128]
0	0x3cfa74f4	0.030573346
1	0x3d358b7a	0.04432247
2	0xbd808be7	-0.06276684
3	0xbd625321	-0.05525506
4	0xbd05efe7	-0.03269949
5	0xbd4545d6	-0.048162304
6	0xbd095cc0	-0.03353572
7	0x3d935235	0.07193414
8	0xbb25b50c	-0.0025284914
9	0xbdbc26fc	-0.09187123
10	0x3d4efba6	0.05053296
11	0xbdbbc40e	-0.09168254
12	0x3d0c22f7	0.034213033
13	0xbd1c9a12	-0.03823287
14	0xbcc09f03	-0.023513323
15	0xbc95a76e	-0.018268313
16	0x3da3a6b9	0.07990784
17	0xbd9e14f3	-0.077188395
18	0x3d810727	0.06300192
19	0x3d63a9da	0.055581905
20	0x3d7e6a96	0.062113367
21	0xbdabdbe9	-0.08391554
22	0x3d832295	0.064030804
23	0xbd716c9d	-0.058941472
24	0xbd6c0f12	-0.05763156
25	0xbd2d5bff	-0.042324062
26	0xbd7c032d	-0.061526466
27	0xbc68b72e	-0.01420383
28	0xbd48ef1b	-0.049056154
29	0x3d9df785	0.07713226
30	0x3d854b53	0.065085076
31	0xbd8c4e11	-0.068508275
32	0xbcdc2311	-0.02687219
33	0x3d2a9c2f	0.041652855
34	0xbd864e03	-0.06557848
35	0x3cd09450	0.025461346
36	0xbdb54e86	-0.08852868
37	0x3d658023	0.056030404
38	0xbd120692	-0.035650797
39	0xbd941421	-0.07230402
40	0x3dbff92a	0.09373696
41	0xbdbb8155	-0.091555275
42	0x3dbf4df2	0.09341039
43	0xbcd78d43	-0.026312476
44	0x3d8cfd59	0.0688426
45	0xbda81c94	-0.08208576
46	0xbd206ea3	-0.03916801
47	0xbd5dd8e6	-0.05416193
48	0x3d74d3b5	0.059772212
49	0xbd0647cd	-0.03278332
50	0xbd3f4379	-0.046695206
51	0xbdc25db0	-0.09490526
52	0x3deb7bba	0.11498208
53	0x3ccb6bad	0.024831617
54	0xbd8be522	-0.06830813
55	0x3c5b70be	0.013393579
56	0xbdb8abbc	-0.09017131
57	0xbcde1f2e	-0.027114477
58	0xbd9cc93d	-0.07655571
59	0x3d216ab8	0.039408416
60	0xbd82f049	-0.06393487
61	0x38b2ae9a	8.5202235e-05
62	0xbb828cec	-0.0039840844
63	0x3d54ccbb	0.05195306
64	0x3cb73d66	0.022368144
65	0xbd83ea76	-0.06441204
66	0xbda45af1	-0.08025158
67	0xbd1a89ba	-0.037729003
68	0x3dad5c88	0.084649146
69	0x3cf03e9f	0.029326735
70	0x3d927de1	0.07152916
71	0x3d108820	0.03528607
72	0xbd12e6aa	-0.03586451
73	0xbc9c7ddd	-0.019102985
74	0xbd0cca1d	-0.034372438
75	0x3d3de8f8	0.046364754
76	0xbaad9eab	-0.0013246139
77	0x3d84d087	0.06485086
78	0x3d35bf7e	0.044372074
79	0x3de29413	0.11063399
80	0x3d1303cf	0.035892304
81	0xbd069fe5	-0.03286733
82	0x3dcff144	0.1015344
83	0xbd46e554	-0.048558548
84	0x3c480c9a	0.012210036
85	0x3d99ee39	0.075161405
86	0xbd86aed3	-0.06576314
87	0xbd6aedd1	-0.057355706
88	0xbbd843ff	-0.0065999026
89	0xbcde125d	-0.027108366
90	0x3d642e65	0.055708308
91	0x3da16f0d	0.078825094
92	0x3cebf344	0.028802522
93	0x3d4b5f6f	0.04965156
94	0xbd71e0db	-0.05905233
95	0xbd9e9f3a	-0.07745214
96	0x3d2dc2f2	0.042422242
97	0xbcbbccbe	-0.022924777
98	0x3d89fcdf	0.067376845
99	0x3d88784d	0.066635706
100	0xbd0b8860	-0.034065604
101	0x3cb8b5a6	0.022547554
102	0xbbb7baa5	-0.0056069666
103	0xbdc64711	-0.096815236
104	0xbd6ce7c6	-0.057838224
105	0x3d4b0f57	0.049575176
106	0x3da9d4f1	0.082925685
107	0xbd306420	-0.043064237
108	0xbcea4c45	-0.028600821
109	0xbd8bd9f9	-0.06828684
110	0xbd63991d	-0.055565942
111	0xbd6d93a6	-0.058002137
112	0x3cd6fe29	0.02624424
113	0x3dbfe210	0.0936929
114	0x3d858d05	0.06521038
115	0xbd83b4fb	-0.06431004
116	0x3d84c437	0.064827375
117	0x3d7a0457	0.061039295
118	0x3d29cb80	0.04145384
119	0x3db1f464	0.08689192
120	0xbcce3b10	-0.025174648
121	0x3bf81813	0.0075712292
122	0x3d8449bc	0.06459376
123	0x3c5b0ced	0.013369781
124	0xbdb557b6	-0.0885462
125	0x3be84a96	0.0070889695
126	0x3b4a5271	0.0030871893
127	0x3d9faea5	0.07796983

fc3.weight f4 [1, 128]
0	0x3c159888	0.009130605
1	0xbbda2f37	-0.0066584605
2	0x3bbc8def	0.0057542245
3	0x3d27bf06	0.04095366
4	0x3c2f8a0c	0.010714065
5	0x3c802736	0.015643697
6	0xbcb79cca	-0.02241363
7	0x3d83d8bc	0.06437823
8	0xbba22292	-0.0049479688
9	0xbcd59393	-0.026071345
10	0x3bde2ab8	0.006779995
11	0x3c0a5948	0.008444138
12	0x3d04ebb6	0.032451354
13	0xbbc65101	-0.006052137
14	0x3d9bff84	0.07617095
15	0x3c42fef5	0.011901607
16	0xbc865bdb	-0.016401222
17	0x3cb37459	0.021906065
18	0xbcba5dd6	-0.022749823
19	0xbbe9039b	-0.0071110255
20	0xbc7c7ca4	-0.015410576
21	0x3c27de23	0.010245833
22	0x3d02abad	0.031902004
23	0xbcc297a7	-0.023753954
24	0x3d2cfb51	0.04223186
25	0xbc00e7c4	-0.007867757
26	0xbbd9991a	-0.0066405656
27	0xbd51f548	-0.05125931
28	0x3c4561c7	0.012047238
29	0x3d73518a	0.059403934
30	0x3c380d2d	0.01123361
31	0xbc09f374	-0.00841986
32	0xbc611179	-0.013737076
33	0x3c987184	0.018608816
34	0xbbb80da9	-0.005616863
35	0xbc1d6db1	-0.009608672
36	0x3c10cd03	0.008837941
37	0x3c5c1479	0.013432615
38	0xbc34192a	-0.010992328
39	0xbc24a78e	-0.010049714
40	0xbbab0b6b	-0.005219867
41	0x3c368ce8	0.011141993
42	0xbd0a60d8	-0.033783764
43	0xbbc5f81a	-0.006041539
44	0x3bc23059	0.0059261736
45	0xbbdd947f	-0.006762087
46	0x3cbc0d6b	0.022955617
47	0xbc10d154	-0.00883897
48	0x3c83ec8b	0.016104003
49	0xbbd5d716	-0.0065258844
50	0xbc9c1b9c	-0.019056134
51	0x3cfbdbaa	0.030744392
52	0x3bb9f7ec	0.0056753065
53	0x3bc73f3f	0.0060805376
54	0xbc63f545	-0.013913457
55	0xbbcf545e	-0.006327196
56	0x3d08b478	0.033375233
57	0xbbacea6e	-0.0052769696
58	0x3c8bb600	0.017054558
59	0x3c7100c1	0.014709652
60	0xbd1e1a67	-0.038599398
61	0x3c0517fd	0.008123395
62	0xbb432c9b	-0.0029781226
63	0x3cfd225c	0.030900173
64	0x3c738223	0.01486257
65	0x3bf3af2f	0.007436655
66	0xbbeeba84	-0.007285418
67	0x3c3843b8	0.011246614
68	0xbca8033f	-0.02050936
69	0xbbdc1744	-0.0067166407
70	0xbcdabf83	-0.026702648
71	0x3c151375	0.009098877
72	0xbd384ebb	-0.04499696
73	0xbc1541a8	-0.009109892
74	0xbc36ccd8	-0.011157237
75	0x3d7b4faa	0.06135527
76	0x3d41f14d	0.047349263
77	0xbb9764da	-0.0046201767
78	0x3c228cf8	0.009921305
79	0x3c3bad16	0.011454841
80	0x3c1b9963	0.009497019
81	0x3c3e6d03	0.01162267
82	0x3c2dafe4	0.010601018
83	0xbc8b69e6	-0.01701827
84	0xbc923766	-0.017848682
85	0x3d567995	0.052362043
86	0xbd379591	-0.044820372
87	0xbbb36828	-0.005475063
88	0xbceb74e9	-0.02874227
89	0x3b52064d	0.0032047213
90	0xbcbfa0ac	-0.023392044
91	0xbbe73e0c	-0.007056957
92	0xbb90cce9	-0.0044189584
93	0xbbb350de	-0.0054722866
94	0x3bdc066d	0.006714633
95	0x3bce1ae8	0.0062898286
96	0x3c099045	0.008396213
97	0xbbe0e55a	-0.0068632783
98	0xbc7d2121	-0.015449793
99	0xbbc5c017	-0.006034862
100	0xbd0bd705	-0.034140605
101	0xbbf76724	-0.007550137
102	0xbc385058	-0.011249624
103	0x3c36bf69	0.011154034
104	0xbc1db833	-0.009626436
105	0xbc65f574	-0.014035571
106	0xbc220ba3	-0.00989047
107	0x3c1cf065	0.009578799
108	0xbc8a3437	-0.016870601
109	0xbc22bda1	-0.009932906
110	0x3c82bbfd	0.01595878
111	0xbbd6213f	-0.006534725
112	0xbc768d79	-0.015048378
113	0x3c113aea	0.008864144
114	0x3dd06fbd	0.101775624
115	0x3bfed706	0.0077770976
116	0x3c1efafb	0.009703393
117	0x3c0f5c1a	0.008749986
118	0xbc9a482c	-0.018833242
119	0xbbbc292a	-0.005742212
120	0xbc200808	-0.00976754
121	0x3ba92ec7	0.005163047
122	0xbb37bf0a	-0.0028037452
123	0xbb69bbdd	-0.0035664954
124	0x3c864726	0.016391348
125	0xbc8b7819	-0.01702504
126	0xbc279f19	-0.010230803
127	0xbda07ec3	-0.07836678
